best_weights_1.pth (torch_old, 55713 bytes, 8 tensors)

fc1.weight f4 [128, 24]
000000 ff be 10 3e 59 91 e1 bc e4 e3 f5 3c 75 fb 61 3c
       0.14135359 -0.027535127 0.030015893 0.013792862
000010 ea 16 3a 3f 24 20 80 be 4b 50 cb bc 0c 5b ce 3c
       0.72691214 -0.2502452 -0.02481856 0.025189899
000020 14 e6 99 bc c3 19 af bd 19 45 29 3d 0c 11 07 be
       -0.018786468 -0.085498355 0.041325662 -0.13190097
000030 3b 0a 87 3e 60 cf 0e bd e0 21 1c bd 1f 9e c8 bd
       0.26374993 -0.034865737 -0.038118243 -0.09795784
000040 76 67 0c bd 3d 0c 9c bd 17 e2 07 bd 23 88 04 bd
       -0.034278356 -0.07619522 -0.0331746 -0.032356393
000050 f6 cb fd be 6f 82 1e 3f ae d7 75 3c f4 2b af bd
       -0.49569672 0.61917776 0.015005035 -0.08553305
000060 26 2a 16 3e 08 1f 44 3d 06 05 58 bc 48 6b 01 bc
       0.14664516 0.047881156 -0.013184791 -0.007899113
000070 fa 97 13 3d 87 60 cd 3c 62 25 27 bd f7 d6 54 bc
       0.036033608 0.025070442 -0.040807135 -0.012990705
000080 86 b6 29 3e 21 b2 57 3d 5e 77 e6 3b 4d cb 89 3d
       0.16573533 0.05266011 0.0070332726 0.0672823
000090 a4 11 f1 bd bc 63 a5 3d ac 64 49 bd 96 a5 85 3d
       -0.11770943 0.080756634 -0.049168274 0.06525724
0000a0 4a a3 4c 3e 2f 0c 86 3d 2b 4b 30 3e 01 19 bf bd
       0.19984165 0.065452926 0.17216174 -0.09330941
0000b0 20 e1 1b be 1d a7 2c 3e 37 3c f2 3d 90 68 be bd
       -0.15222597 0.16860624 0.11827891 -0.092972875
0000c0 68 21 4d 3c 4c 7b 87 3d e0 1a 97 bd 79 c5 6d 3b
       0.012520172 0.06615314 -0.07378173 0.0036281033
0000d0 e4 79 18 bd 8c 3a 71 3c 28 90 4d bd 72 a9 91 bb
       -0.03722562 0.014723431 -0.050186306 -0.0044452483
0000e0 c1 22 8a 3d 5e 96 6c 3d 6c 32 b4 3c 29 c5 33 bc
       0.0674491 0.05776059 0.0219967 -0.0109723
0000f0 f7 9e 00 3c c0 b0 5e bc 87 c0 69 3d cc 6e fb bb
       0.0078504 -0.013591945 0.057068374 -0.00767312
000100 78 1d 65 3d 8f ba 42 3d b2 3d 0d bd 6f 20 9a bd
       0.055936307 0.047541197 -0.034482665 -0.075257175
000110 f2 92 b0 3d 1c 46 47 bd 20 b0 57 bd bd 0e 9c bd
       0.086217776 -0.048650846 -0.0526582 -0.076199986
000120 33 ce 06 3e 6c 3b 26 3d 48 ad fa 3c e5 00 b0 3d
       0.13164596 0.040584013 0.030600205 0.085939206
000130 c6 67 7c 3d 30 ed 0f bc f2 66 53 bd c7 f8 a8 3d
       0.061622404 -0.008784577 -0.05161185 0.082505755
000140 39 08 e0 3d ec 2d 97 3d 02 c1 ab 38 ae ff e6 3d
       0.10939068 0.07381806 8.189866e-05 0.11279236
000150 25 2b 25 3e d9 e8 96 3e 80 d2 76 bb 1f e1 f6 3d
       0.1612974 0.29474524 -0.003766209 0.12054657
000160 c0 e8 1f 3e 45 85 e5 3d 24 61 2c bb 89 62 8c 3e
       0.15616131 0.1120706 -0.0026303018 0.27418926
000170 17 0d a0 3e fd 9a b8 3e 1b aa d7 bc 44 0b 90 3e
       0.31259987 0.36055747 -0.02632623 0.28133595
000180 12 44 67 3e 95 b5 1f 3c 1e a4 09 3d 4f 30 fc bb
       0.2258456 0.009747882 0.03360378 -0.0076961885
000190 30 92 ce 3d e4 df 85 bc 2a 1b f3 3d 83 f4 eb bb
       0.10086477 -0.016342111 0.118704155 -0.007200779
0001a0 6d a3 6b 3e da 5b aa 3c 07 30 da bd 0a d2 29 3e
       0.2301156 0.020795751 -0.10653692 0.1658403
0001b0 fd 6d f0 3d 02 8f b2 bd 7d c0 9c bd 79 73 28 3e
       0.117397286 -0.08718683 -0.07653902 0.164503
0001c0 31 8e 66 3e ab ea 21 3d 63 21 f9 bc f6 74 bd 3d
       0.22515179 0.039530437 -0.030411428 0.09250824
0001d0 4b 4c c0 3c 03 65 92 bd c0 36 c7 3c 0b c2 bd 3d
       0.02347388 -0.07148173 0.024318099 0.092655264
0001e0 5b d3 ce bd 8a 12 64 bd fa 4c 11 bd b5 88 46 3d
       -0.100989066 -0.055681743 -0.0354738 0.048470218
0001f0 f2 73 e7 3d c9 65 11 3f d8 a4 0c 3d 13 5d 6a 3d
       0.11301412 0.56795937 0.034336895 0.05721767
000200 82 ee 64 bd ff 7f a4 bd b0 00 38 bd 15 82 56 bc
       -0.05589152 -0.08032226 -0.04492253 -0.013092537
000210 e7 76 1b 3d 6f c7 76 3d 02 4c 34 3d 7b 93 a8 bc
       0.03795519 0.06024879 0.0440178 -0.020578137
000220 dc f0 7e bd ca 7c c4 bd 2e bd 76 3d 55 9d 44 3c
       -0.06224142 -0.09594114 0.06023901 0.0120004015
000230 55 d4 52 3e f9 3d 3f bf ae 0f 8f bd da e9 06 3d
       0.2058881 -0.7470394 -0.069854125 0.032937862
000240 72 73 31 3d 0e 85 1f bd 43 2a a5 bd d4 bf 2f 3c
       0.043322988 -0.03894525 -0.080647014 0.010726888
000250 cf 02 22 3e 99 a6 1d 3d 1a 50 97 bd 35 03 25 3c
       0.15821384 0.038488958 -0.07388325 0.010071565
000260 20 d5 80 3d 7c d7 08 bd 9b f0 e4 bb 90 90 7a 3d
       0.0629065 -0.033408627 -0.00698669 0.06117302
000270 cd df 0c 3e 36 44 84 bd 13 3e c2 bc a4 68 6c 3d
       0.13757248 -0.06458323 -0.02371124 0.05771698
000280 b1 ec a5 3d 4d 15 ec bc 93 c5 15 3e f7 7c bb bd
       0.08101786 -0.02881875 0.1462615 -0.091546945
000290 17 b3 9a 3d be c8 ac bd 1c f9 46 3d 4f f5 b7 bd
       0.0755369 -0.08436726 0.048577413 -0.08982336
0002a0 80 32 37 3e a6 cd 03 3d 9f 7b 16 bc b1 da 36 3d
       0.17890358 0.032178544 -0.009184747 0.044642154
0002b0 66 6e 0f 3e f6 d4 24 be 5c 89 73 bd 4c dd 02 3d
       0.14006957 -0.16096863 -0.059457168 0.031949326
0002c0 d4 86 25 3e 7d 8d 83 3d cb 67 21 3d 93 d4 18 bb
       0.16164714 0.06423471 0.039405625 -0.0023320063
0002d0 a2 f6 46 3e fb 45 df 3d 25 80 48 3c ad c9 80 3b
       0.1943002 0.109020196 0.012237583 0.0039302916
0002e0 91 25 0c 3e b6 7f 68 3d 1e 32 09 bd 3d f9 7c 3c
       0.13686205 0.05676242 -0.03349506 0.015440282
0002f0 67 9c 0b 3f 9b e7 17 3e 95 96 0c bd dc c4 75 3c
       0.54535526 0.14834444 -0.034323294 0.015000548
000300 51 ee 80 3b 54 83 23 be 5d aa 4f bd 5f 7b fe 3d
       0.0039346595 -0.15968066 -0.05069958 0.12425875
000310 d8 d8 57 3d 23 46 e6 3e f9 07 19 bd 07 7e f5 3d
       0.052697033 0.44975385 -0.03736112 0.119869284
000320 64 4b 5d 3c 43 02 51 be 17 20 c8 3c 28 d8 ec 3c
       0.013506744 -0.20411019 0.024429364 0.028911665
000330 12 da a9 3c b8 7a 3d bd 42 29 06 bc b1 3a fd 3b
       0.020733867 -0.04625961 -0.008188548 0.007727944
000340 53 ad e4 bd ca 58 54 be cb 10 3e bd 7c 83 d4 3d
       -0.111658715 -0.20736995 -0.046402734 0.10376641
000350 19 75 c2 bd b1 d4 17 bf 7a 56 ad bd fb 25 bd 3d
       -0.09494991 -0.59308916 -0.0846376 0.0923576
000360 2e 7e a8 bd e3 a3 a1 bd 52 f0 b1 ba 6d 94 f5 3c
       -0.08227192 -0.07892587 -0.0013575649 0.029978001
000370 c4 ad 06 bf 2f c8 f9 be 64 28 29 bb 55 21 46 3d
       -0.52608895 -0.4878554 -0.0025811428 0.04837163
000380 cf 47 aa bd 26 0e 7a bd 06 a8 27 bc 9d 95 12 3c
       -0.08314478 -0.06104865 -0.010232931 0.008946803
000390 d3 3f 70 bc f2 18 e7 bd 96 22 6d 3c 4a 9b e7 bb
       -0.014663654 -0.11284055 0.014473578 -0.0070680724
0003a0 7e 96 57 bd 1c e5 fc bd 14 02 80 bc 90 05 af bc
       -0.052633755 -0.12348387 -0.01562599 -0.021364957
0003b0 b6 2c 09 3f ee 40 a0 3e 87 e3 cb 3b 0e b3 c1 bb
       0.5358385 0.31299537 0.0062221917 -0.0059112376
0003c0 a9 fc 6d 3d f2 da fa bc 97 52 7d bd c4 f6 19 be
       0.058102284 -0.03062198 -0.061846342 -0.1503554
0003d0 6d 64 95 be 86 3f 21 bd c2 7d e8 3b 76 f9 2d be
       -0.2917818 -0.03936722 0.0070950696 -0.16989693
0003e0 34 d2 21 3e 36 3d 37 bd da f7 1d 3d 94 3a 99 bd
       0.15802842 -0.04473611 0.038566448 -0.07481876
0003f0 57 b9 9d bd bf 47 f8 3d 32 ad 84 3c a8 2b b8 bd
       -0.077013664 0.121230595 0.016195867 -0.08992702

fc1.bias f4 [128]
000000 4b ed c8 3c 6d 46 69 bd 74 f5 1f bd 9e 8b ee bd
       0.024527213 -0.05695193 -0.03905244 -0.116477236
000010 cd 4c 90 bb 81 fd 09 3e 9e 4d 1d ba 59 42 fd bd
       -0.0044036866 0.1347561 -0.00060006406 -0.123661704
000020 3b 72 44 3e a3 9c da bc 71 06 1a bd 53 fd 8d bd
       0.191842 -0.026686018 -0.0376038 -0.069330834
000030 73 06 6c 3c d5 64 06 be f5 2c 8e 3d a3 72 6c 3c
       0.0144058345 -0.13124402 0.069421686 0.014431628
000040 34 63 8e bc ed 75 a4 bd 99 e4 06 3a 26 bc 98 3a
       -0.017381288 -0.08030305 0.0005145758 0.0011652752
000050 5f 2d 22 bc 55 75 ee bd 0e 77 14 bc 94 2c de bc
       -0.009898513 -0.11643473 -0.009061588 -0.027120866
000060 bc 1f 1e 3d 53 83 2b 3d d4 be 51 3b b5 62 7e 3d
       0.038604483 0.041873287 0.0032004612 0.062105853
000070 e3 73 16 bd 77 d0 82 bb b1 17 e9 3c c8 88 19 bc
       -0.036731612 -0.003992136 0.02845368 -0.00937099
000080 02 61 35 bd cc 05 11 3d ff 71 b7 bb 69 e0 24 be
       -0.044281967 0.03540592 -0.005598306 -0.1610123
000090 35 72 82 bd 76 e0 96 bc db b8 06 bd ef f6 19 3e
       -0.063694395 -0.018417578 -0.032891136 0.15035604
0000a0 8f a8 54 3c 0f a8 72 bd 8d fb 70 bc 8d 2a d8 bd
       0.012979641 -0.059242304 -0.014708412 -0.10554991
0000b0 42 73 a8 bc 5d 96 67 bd 29 07 ae bd 6c 8d c5 bc
       -0.020562772 -0.056539882 -0.084974594 -0.024115287
0000c0 03 82 d3 3d 04 cf ec 3b c4 22 e3 bd 9a da 78 3b
       0.10327532 0.0072268266 -0.110906154 0.0037972094
0000d0 1a a2 48 3a 5a 03 90 3c 00 de 54 bc 70 bb 8e 3c
       0.00076535495 0.017579723 -0.012992382 0.017423362
0000e0 e1 c2 8d bd 92 db c7 bc 5d 51 47 3e 89 5d c0 3b
       -0.06921936 -0.024396691 0.19464631 0.0058705253
0000f0 70 a3 03 be ef 06 7a 3d 2a 91 0d 3b 3f c4 50 bd
       -0.12855315 0.06104177 0.0021601417 -0.050968405
000100 e1 81 7d bc a7 0c 7a bd b8 5d 8b bd b2 12 bd bd
       -0.01547286 -0.061047222 -0.06804985 -0.092320815
000110 6f a8 e8 bc 7c 6e 81 bc 53 f4 4d 3d 3f f9 6c 3e
       -0.028400628 -0.015799753 0.050281834 0.23141955
000120 0d 53 32 bd 43 89 4d 3e 54 08 80 bb 59 71 67 3d
       -0.043536235 0.20071892 -0.003907243 0.05650458
000130 b1 7d a2 bd 0a ad 5b 3d a4 1e 41 bc d2 0e e9 3b
       -0.0793413 0.05363182 -0.01178709 0.0071123624
000140 0a 43 cb bc 0b e4 9b bd ce 4b 6b bd 9a d1 f5 bc
       -0.02481224 -0.07611855 -0.05744534 -0.030007172
000150 70 8c 1f bd 5d 4a 8d 3e 14 e5 c8 3d e7 f4 58 bd
       -0.03895229 0.27595797 0.09809318 -0.052967932
000160 08 eb 09 3c b9 cf 12 3d 39 e2 24 be ad 45 64 3c
       0.008417852 0.03584263 -0.16101922 0.013932628
000170 60 61 b1 bd 8f 94 d9 bb 3d 00 2d bd b5 34 c4 b9
       -0.08661151 -0.006640024 -0.042236555 -0.00037423303
000180 08 6f 73 bd 4c cf 9d 3c 76 09 63 3c 0f d8 17 bd
       -0.05943206 0.019263886 0.013857236 -0.037071284
000190 36 76 87 3d 79 fa ad bd 35 56 f2 bd 9e 5a 5c 3d
       0.06614344 -0.084950395 -0.11832849 0.053797357
0001a0 16 8e bf bb 9b ec 54 3e 0c 12 27 3d 16 af b3 3d
       -0.0058457954 0.20793383 0.040788695 0.08773629
0001b0 89 cf 76 bb bb 3f 75 bc 18 cd 3f be ea fb 96 3a
       -0.0037660322 -0.014968808 -0.18730581 0.0011519168
0001c0 ac 31 d2 3d 0b f6 29 3d fb e6 b7 bd 4d ca b3 3d
       0.102633804 0.04149441 -0.08979603 0.0877882
0001d0 7d e2 c9 bc f5 58 01 be e9 69 3d bd 8a 49 93 3d
       -0.02464413 -0.1263159 -0.046243582 0.07191761
0001e0 96 03 a1 bc 76 f0 06 3e db be eb bc ed 45 f4 bd
       -0.01965503 0.13177666 -0.02877753 -0.119274
0001f0 30 ae 84 bd 33 68 64 3b e3 67 b3 bc 37 2f 2b bd
       -0.06478536 0.0034852147 -0.021900123 -0.041793074

fc2.weight f4 [64, 128]
000000 d3 53 a2 bb d5 aa 57 be 23 42 c6 bd 20 93 f4 3d
       -0.0049538403 -0.21061261 -0.09680583 0.11942124
000010 97 ac d4 bd f5 30 cc bc 6d 6a 32 3d f3 5c 8a 3d
       -0.103844814 -0.024925688 0.043558527 0.0675601
000020 e1 1e b3 bd b5 fa b6 bd ba b4 c1 bd 7b a2 02 3c
       -0.08746124 -0.08934537 -0.09458299 0.007973309
000030 2e 17 97 3d 89 2c 30 3d 64 ea b5 bc 40 8a 4c bd
       0.07377468 0.043011222 -0.022206493 -0.049936533
000040 fb 86 f9 3c 4d 12 1f bd 1b 90 63 3b 5c 15 86 3c
       0.030459872 -0.038835812 0.0034723345 0.016367607
000050 e7 59 16 3d 0d fb 94 bd cb ac b1 bd ce a6 8f 3d
       0.03670683 -0.07274447 -0.08675536 0.07014237
000060 fe a7 2f be 61 06 bf 3d 67 22 3c bc a0 11 83 bb
       -0.17153928 0.093273886 -0.0114828115 -0.003999904
000070 6f 2d ec 3d 6c 93 12 bd 64 0a f6 bd 58 3c 62 3d
       0.11532103 -0.035785124 -0.120137006 0.05523333
000080 ba fe b0 3d 1d af 06 3d 71 32 02 bd 36 a7 16 3d
       0.08642335 0.032881845 -0.031786386 0.03678056
000090 de d3 2e 3e 27 4d 4b bc a1 79 26 be 45 fc 03 3d
       0.17073008 -0.012408531 -0.16257335 0.032223005
0000a0 c6 76 a4 bc 82 f8 3f be dd 9d 4d bd 79 ed 10 3c
       -0.020076167 -0.18747142 -0.05019938 0.00884568
0000b0 50 73 7f 3d 0f af 9c 3d ec ac 26 bc d0 50 09 be
       0.06236583 0.07650577 -0.010173064 -0.13409734
0000c0 16 d3 b8 bd ba d8 13 3d 40 93 85 bb 14 44 65 39
       -0.090246364 0.03609536 -0.0040763915 0.00021864503
0000d0 ec 86 3d 3c 28 e3 ce 3d 9c 58 ff bd 6a f6 65 3d
       0.011567812 0.1010192 -0.12468073 0.056143202
0000e0 21 04 a6 3d 19 df f0 bc 30 1c 88 bc 7d f7 09 3d
       0.08106256 -0.029403256 -0.016615003 0.03368329
0000f0 18 b6 09 3e 97 39 04 be dd b7 9f bd 6e 5e 02 3e
       0.1344837 -0.12912594 -0.07798741 0.12731335
000100 bb 3d b7 3d 87 c6 d0 bd 4e 87 e5 3d a0 f6 2b 3d
       0.08947321 -0.10194116 0.11207448 0.041983247
000110 2e 45 1a 3b 32 a8 14 3c ec a1 07 3d 83 ae fb 3d
       0.002353977 0.009073304 0.033113405 0.12289145
000120 d0 ec 9a bd af 7c 14 be 9e d0 17 bd 00 7c 9e bc
       -0.075647 -0.14500688 -0.037064187 -0.019346237
000130 cc 4d ee 3d af 14 a1 3c 4d ea 25 3d 19 45 e2 3d
       0.11635932 0.019663183 0.04050665 0.110483356
000140 19 b3 24 bd e7 72 80 3d 94 36 0a 3c 07 f5 cb 3c
       -0.040209863 0.06271916 0.008435864 0.024897112
000150 20 83 ce bc 00 d6 5a bd 4e a0 b1 bd dc 5f 00 ba
       -0.02520901 -0.053426743 -0.08673154 -0.00048970967
000160 b5 bb 09 bd 3e 6b 90 3d 4b 6f ba 3b ce be bb 3d
       -0.033626277 0.07051705 0.0056895367 0.091672525
000170 7d 77 a0 bd 36 3d ed bc 9e 76 04 3e d2 6f dc bc
       -0.078352906 -0.028959852 0.12935874 -0.026908789
000180 87 50 de bc 14 76 12 3d 40 da 86 bd 99 16 f5 bd
       -0.027138008 0.03575714 -0.06584597 -0.11967201
000190 15 4b a6 bb 19 ea 2f 3e 48 57 10 3c e2 ed b6 bd
       -0.0050748684 0.17179145 0.008809872 -0.08932091
0001a0 a7 e4 30 be 06 86 68 bd ca 6a 35 3c 24 8a 1a be
       -0.17274724 -0.05676844 0.011072824 -0.15091759
0001b0 ce 2a 9e bc 5c 0c 28 be 67 39 cb 3d 03 11 2e bd
       -0.01930752 -0.16410965 0.09923058 -0.042496692
0001c0 b9 5e de 3d f6 cd a9 bd 43 cd ba 3c 07 2d 4d be
       0.10857911 -0.08291237 0.022802955 -0.20036708
0001d0 c5 1d df bd 96 08 37 3d b4 3a 72 3d 70 fa 47 3c
       -0.1089435 0.044685923 0.059138015 0.012205705
0001e0 ec 96 11 bc 0a 1e c3 bd b8 51 45 bd b5 5a 3a 3d
       -0.00888608 -0.09527214 -0.048173636 0.04549666
0001f0 5d 85 c5 bd 7b 54 d3 3d df e7 5e 3d f2 18 5a be
       -0.09644578 0.10318848 0.05442035 -0.21298578
000200 15 f5 16 bd f9 c1 a4 3c 28 98 77 3d 36 c5 8e 3e
       -0.036854822 0.020112025 0.060447842 0.27884835
000210 dd d7 9c bd cb e5 22 bd d4 23 3b 3d a2 cf 9d bd
       -0.0765836 -0.03976993 0.045688465 -0.077056184
000220 c8 cf f3 3c ee 93 fb bd 36 02 fc 3c 77 69 43 bd
       0.029762164 -0.12284075 0.030762773 -0.047708
000230 b4 38 cd 3c d4 20 2d bd 60 f7 0a bc 30 0c db bd
       0.025051452 -0.042267635 -0.00848183 -0.10695684
000240 df e0 c3 bd ae 92 f0 3d 9a b8 8f bd 4d 2e 9f bc
       -0.09564375 0.11746727 -0.07017632 -0.019431258
000250 53 5f b0 3b 4f 20 c3 bd 96 22 0a bd 68 47 53 bd
       0.0053824573 -0.09527647 -0.03372439 -0.05158177
000260 7e 11 a4 bd 27 9d 92 3c 85 06 ec bd f5 7a 97 bd
       -0.08011149 0.017897202 -0.11524681 -0.07396499
000270 6a d1 1e bd 60 75 0c be e6 1a dc bd 94 b4 1b bd
       -0.03877393 -0.1371665 -0.10747318 -0.03801401
000280 bf b8 ed 3d 41 02 a6 bd b9 4e 3f bd 15 d3 f1 3d
       0.11607503 -0.08105899 -0.046705935 0.11807839
000290 61 0a 8f 3b 57 b6 9d 3d af 71 d0 3c 68 c5 03 3e
       0.004365251 0.07700794 0.025444834 0.12868273
0002a0 8c 0d 11 3d 7b e0 74 bc 5f 20 83 bd de 3a 97 3d
       0.03541331 -0.014946098 -0.06402659 0.07384275
0002b0 45 a3 83 3c 36 87 b9 3c 9e 3b 59 3d a6 ae 48 3d
       0.016069064 0.022647481 0.05303537 0.048994683
0002c0 2a ac 0d bd 33 45 ca bd cd aa 67 3d 04 bd ba bc
       -0.034588017 -0.0987648 0.056559373 -0.022795208
0002d0 26 ad ce bb 86 ec 49 3c ed 2a 5d bd ad 29 5d bc
       -0.006307262 0.012324458 -0.053996015 -0.013498706
0002e0 1e 8b fa 3b 9a 44 94 bd 71 3c bd 3d 60 38 c0 3b
       0.0076459786 -0.07239647 0.09240044 0.0058660954
0002f0 0b 80 f3 b9 28 62 16 3e cd aa ef bb 37 be 00 bd
       -0.0004644397 0.14685881 -0.007314062 -0.031431403
000300 1a 88 f3 3d db 6a 16 3e a5 57 d3 bb 60 cf 7d be
       0.11891194 0.146892 -0.006449657 -0.24786139
000310 34 fe 6f bd 83 fa ef bc 9d aa 99 bd c5 a0 39 be
       -0.058592036 -0.029294258 -0.07503245 -0.18127735
000320 b2 98 08 3d 0f e7 39 bd 03 fe 8d 3c b9 a6 84 bc
       0.033348747 -0.04538637 0.017333036 -0.01619278
000330 ec 0d 89 bd c6 4f 86 bd 85 63 f1 3c 22 11 b6 bd
       -0.066921085 -0.06558184 0.0294664 -0.088899866
000340 6e 85 db 3d 1a 5d 76 bc 9e 5c 6f bd 03 6c b4 bc
       0.10718809 -0.015036846 -0.058437936 -0.02202416
000350 79 33 38 3c 7e 69 ed bd 95 0c f6 bd a9 dd 2a bc
       0.011242741 -0.11592387 -0.120141186 -0.010428824
000360 ab 2f 6b bd e2 89 9f 3b 5e c9 55 3b 02 31 be bd
       -0.057418507 0.004868732 0.0032621245 -0.09286691
000370 90 a2 b5 3d be 96 d3 bc 0b 50 25 3c d1 61 8d 3b
       0.08868897 -0.025828715 0.0100898845 0.004314639
000380 4f 6b ad bb d3 b5 5c bd 00 a9 41 3d d3 85 f8 3d
       -0.005292333 -0.05388434 0.04728031 0.121349
000390 9c e4 1f 3e cb 2f 1b bc ac c3 b0 3d 50 3e f6 3b
       0.15614551 -0.009471844 0.086310714 0.0075147524
0003a0 7c 72 ce bd c5 45 93 3d eb e4 30 3e d9 45 04 bd
       -0.1008043 0.07191042 0.17274825 -0.032293174
0003b0 60 f8 6e bd 5f 1f 17 bd 5c b7 3e 3c 64 31 0e be
       -0.058342338 -0.036895152 0.011640396 -0.13886029
0003c0 be a1 ae 3d 96 d6 d6 bc 05 2e 3a 3d 1f 02 41 be
       0.085269436 -0.02622537 0.045454044 -0.18848465
0003d0 dc 45 52 bd 56 60 e6 bc e1 76 3d bd 8a 02 ad 3d
       -0.051336154 -0.028122108 -0.04625595 0.0844775
0003e0 68 dd 37 bd a3 91 e5 bd e9 5a cc 3d 92 fa 82 3d
       -0.044888884 -0.112094186 0.09978277 0.06395449
0003f0 f6 98 c7 3d 39 84 a6 3c 8d 8e 9e 3d ee 1d 8c 3d
       0.09745972 0.02032672 0.07742033 0.06841646

fc2.bias f4 [64]
000000 de 71 36 3d 7b 40 74 bd db 0f 28 bc fc 3a a0 3c
       0.044542186 -0.059631806 -0.0102576865 0.019559376
000010 86 61 d1 bd 6d bc 47 be 05 54 0a 3e 58 e2 1d 3c
       -0.10223679 -0.19505472 0.13508613 0.009636484
000020 17 07 7c bd b8 f5 cb bc c4 64 4a be 59 11 8d bc
       -0.0615302 -0.024897441 -0.19765002 -0.017220186
000030 bb 99 08 bd bc b8 3c 3d 40 e8 80 bd 2e 05 86 3d
       -0.033349734 0.046074614 -0.06294298 0.06543957
000040 73 46 c2 3b 75 0c b3 bc 3d 60 85 bd d5 59 e3 bc
       0.0059288084 -0.021856526 -0.065124966 -0.027752796
000050 e6 a2 d1 bc b2 19 2a bd 0c fd 75 3e a1 a8 28 3d
       -0.025590371 -0.04152841 0.24022311 0.041176442
000060 c9 8b 01 bd 08 3c 22 3e ca bc 93 3d 2c f3 bd bd
       -0.03162745 0.15843213 0.07213743 -0.09274897
000070 d0 d1 0e 3e ab 57 6d 3b 96 55 dc 3c 95 48 47 bc
       0.13947225 0.0036215584 0.02689628 -0.012163301
000080 f7 3a e9 3c 12 60 ba bd 34 f5 47 bc dd 1f ec 3c
       0.0284705 -0.09100355 -0.012204457 0.028823787
000090 bf f3 a8 be a8 2f b5 bd 12 9a 2c bd 02 94 05 3e
       -0.32998464 -0.0884698 -0.04213912 0.13044742
0000a0 8d 57 94 3c 6d a3 c2 3d 61 c1 f6 bc 74 cb e7 3c
       0.018108154 0.09503827 -0.030121507 0.028295256
0000b0 16 43 5c bb f6 f2 92 be 26 16 22 bd 4d 5b f6 bd
       -0.0033609322 -0.2870099 -0.039571904 -0.12029133
0000c0 9d 6f bd bc 8c bc 08 bc ec e6 1a 3d 8b 87 08 3d
       -0.02312451 -0.008345734 0.03781788 0.03333239
0000d0 92 48 ce bd 29 df 47 3d f6 8f 21 bd 1c ca e9 bd
       -0.100724354 0.048796806 -0.039443932 -0.114155024
0000e0 a2 01 dd bd 21 af cb bc 4c 3a 1d 3c 3b 6a 0b be
       -0.10791327 -0.024863781 0.009596419 -0.13614742
0000f0 5e 32 16 bd 13 be 99 3d bb 71 9c 3d 1c d4 12 be
       -0.036669128 0.07506957 0.0763888 -0.14338726

fc3.weight f4 [32, 64]
000000 91 a6 df bb 5a 1b d3 bd 0c 67 b4 bb 87 ec 15 bd
       -0.006825276 -0.10307951 -0.005505448 -0.036602523
000010 2b 9c f7 bc 28 39 f6 bd 4d 6f 77 3e ff ad 93 3d
       -0.030225834 -0.120226204 0.24163552 0.072109215
000020 39 ea 86 bb 21 76 ed be e5 c5 40 be 4b 7a 31 bd
       -0.004117277 -0.46379188 -0.18825491 -0.04332952
000030 c9 24 9c 3d 28 3e be bd 92 bf 18 3b 6a 87 c2 3d
       0.07624204 -0.09289199 0.0023307544 0.094984844
000040 30 4a 3b bc dd e3 18 3e 86 17 ab bd a1 1a 19 3e
       -0.011431262 0.14930673 -0.08354096 0.14951564
000050 51 1b c8 3d d3 ec ff bd 2a e1 b0 3e d2 64 82 be
       0.09770835 -0.124963425 0.34546787 -0.25467545
000060 28 35 95 bd 62 c8 11 3e be 79 12 3d 4d cd 20 3c
       -0.072855294 0.14236596 0.035760634 0.0098145725
000070 35 54 b2 3d d8 90 d2 bd 16 ad 90 3c 4c da 21 3d
       0.087074675 -0.10281533 0.017660659 0.039514825
000080 80 ca 8f bd 74 fa e9 bd 46 5c 50 bb c4 b3 e3 3d
       -0.07021046 -0.11424723 -0.003179328 0.11118272
000090 53 fd 01 3e db 01 d4 3d ee 3c ef bd dd 93 20 3e
       0.12694292 0.103519164 -0.11681543 0.15681405
0000a0 41 90 9a bd f4 82 22 be a0 ea a1 3b 98 2b 57 bd
       -0.075470455 -0.15870267 0.0049412996 -0.05253181
0000b0 01 25 68 bd de 1a 7c be 87 51 91 3d ce 1e a7 3c
       -0.056675915 -0.24619624 0.07095628 0.020400431
0000c0 d9 9e 4b be f9 39 b6 bd 2c 64 9e bc ea fa 2e bd
       -0.19884814 -0.08897776 -0.019334875 -0.04271976
0000d0 37 db e6 bb e9 f7 55 3d 2e 7d 14 3d db e2 63 3d
       -0.0070451754 0.05223838 0.036252193 0.055636268
0000e0 27 10 9a 3d 9c 69 a4 bd 40 4a 6c bc e3 1d f2 3d
       0.07522612 -0.08027956 -0.014421999 0.11822107
0000f0 cf 2a 9e bb c9 6d 9c bd 9a 7a 9c bd a2 e7 d2 3c
       -0.0048268805 -0.07638127 -0.07640572 0.025745217
000100 4c cc 07 3e d3 91 1f be c2 18 64 bc c6 8a eb 3d
       0.13261527 -0.15582971 -0.013921918 0.11501078
000110 27 65 f1 bd 2a 7d 64 3e 23 ef 7b 3d d2 24 c8 bd
       -0.117868714 0.22313371 0.061507355 -0.09772648
000120 2d 4d 6e 3e fa 0c 23 bd 9b 5b 13 bd 10 6f 6f bb
       0.23271628 -0.039807297 -0.035976034 -0.0036534704
000130 92 c1 98 bc cb ab e6 3d a1 66 06 3d d6 1e a8 bd
       -0.018646989 0.11263236 0.03281272 -0.082090065
000140 60 df fd bd bb a6 53 3c 17 b6 15 3e e6 1d 7b bd
       -0.12396121 0.01291817 0.14620243 -0.06130781
000150 6b 5a c0 bd f2 c3 4e 3d 15 f6 15 be 2b d4 42 3d
       -0.09392246 0.050479837 -0.14644654 0.04756562
000160 0b b6 ce 3d f0 c4 39 3e 85 eb 8a 3b 3f 88 19 3d
       0.10093316 0.18141532 0.004239502 0.03748345
000170 8c bd 06 3e a2 d6 a8 bd 24 41 c1 bd 4a 16 7e bd
       0.13158244 -0.08244063 -0.09436253 -0.062032975
000180 fd 17 14 3e e7 53 8e 3d 7f f2 14 3e 9c 50 68 be
       0.14462276 0.06949597 0.1454563 -0.22687
000190 ba 2c 49 3e 30 06 44 3e 93 d4 f9 3d 46 6e 88 3c
       0.19645968 0.19142985 0.121987484 0.016654145
0001a0 3f a5 b0 bd c9 49 ba bd d6 13 a5 3d 05 e3 00 bc
       -0.08625268 -0.09096105 0.08060424 -0.007866626
0001b0 e3 a7 15 3d 3e 08 30 bd 64 1c 8e 3e 36 75 5c 3e
       0.036537062 -0.04297661 0.27756035 0.21529087
0001c0 ef 32 27 be 6d 19 ac 3d 94 a7 ab bd 2f 4d 9b 3d
       -0.16328023 0.08403287 -0.08381572 0.07583081
0001d0 8b c8 a8 3d 0c 88 ee bc 48 1a 86 be ea 75 2b 3e
       0.082413755 -0.029117607 -0.26191926 0.167442
0001e0 ab 12 23 3e 10 7f 5c bb 83 a0 8b bd 2a c2 06 be
       0.1592509 -0.003364507 -0.068177246 -0.13160005
0001f0 17 37 0b be 16 a0 be bd 45 e9 2b 3e f9 70 58 3e
       -0.13595234 -0.09307878 0.16788204 0.21136846
000200 b2 d6 37 3d 07 5b 3c be 3d 3f 0e 3d 4b 50 0d 3e
       0.044882484 -0.18394099 0.034728277 0.1380016
000210 ea 4f bc bd 89 a3 8f 3d d2 4c 76 3d b9 5d b5 3a
       -0.0919493 0.07013614 0.060131855 0.0013837136
000220 d0 97 80 be 09 9e 60 bd 68 3a 75 bc 17 3a b7 be
       -0.25115824 -0.054838214 -0.014967538 -0.35786507
000230 4c f6 bf 3d fe e3 67 3d 3e a3 a0 bd 2b cb f4 be
       0.09373149 0.056613915 -0.07843636 -0.47811255
000240 4c 6b 59 3e ad fa 98 3d 55 45 3f be 86 a3 06 be
       0.21232337 0.074696876 -0.18678792 -0.13148317
000250 25 e7 82 be e4 d6 9a bc cb 2c c7 3d 1b 4e c3 3d
       -0.25566974 -0.018901296 0.097253405 0.09536382
000260 45 cd 39 bd 03 f9 b7 bc 34 92 48 bd 93 10 ac be
       -0.045361776 -0.022457605 -0.048967555 -0.33606395
000270 c1 3d dc 3d a9 2a 8b 3e a7 a8 4d 3e 5d bb bd bc
       0.10753966 0.27180985 0.20083867 -0.02316063
000280 50 6b 29 be ce e5 81 bc 78 cb ad be c6 a8 42 bd
       -0.16544843 -0.01585665 -0.33944297 -0.047524236
000290 85 4f 12 be b4 c8 e6 be f1 dc 38 be 64 18 8d bd
       -0.14288147 -0.45075 -0.18053032 -0.06889418
0002a0 f3 f2 c4 bd d2 b5 1f 3d f2 29 f2 3c 53 93 20 3e
       -0.096166514 0.038991757 0.029561017 0.156812
0002b0 6f 72 3c be 2d 12 16 3d 3e 34 3d 3e 3c bb 53 3d
       -0.18403028 0.036638428 0.1847696 0.051692232
0002c0 c8 ba b9 3d 56 a9 78 3d 53 97 de 3e d1 76 18 3d
       0.09068829 0.060708366 0.43474826 0.037222687
0002d0 b6 83 62 3d bc 37 91 bc 72 f9 4d 3d 97 23 c7 3d
       0.05530139 -0.017726772 0.050286718 0.09723585
0002e0 ca a9 0d 3e 74 ee be bd e5 dc 19 3e 0e 0a cc 3d
       0.138343 -0.09322825 0.15025671 0.09962855
0002f0 0b e1 3d 3c 52 04 43 bc 8c 98 b0 bd c7 73 92 be
       0.011589299 -0.0119028855 -0.08622846 -0.28603956
000300 f8 1f 4c 3d f9 85 ba be 72 70 43 be 5b 3c 8c be
       0.049835175 -0.36430338 -0.19085863 -0.27389798
000310 a8 76 d4 3d 0f 0b 6e 3d 25 f6 b8 be 03 c4 80 3d
       0.103741944 0.058116015 -0.36125293 0.06287386
000320 07 45 40 3d 25 7c c1 3e 80 f4 2c be eb fb c9 3d
       0.04694083 0.37790027 -0.16890144 0.09862503
000330 39 39 ba bc c4 5f a9 be 3f df 93 bc 7e 71 27 3d
       -0.022732364 -0.33080876 -0.018050788 0.04087972
000340 a8 ed 34 bc 88 c0 fb 3d a7 38 5a 3d 33 a8 47 3e
       -0.01104299 0.12292582 0.053276684 0.19497757
000350 cd 1b 19 bd fc 51 4c be 2f c3 88 bd f0 93 f7 3e
       -0.03738003 -0.1995315 -0.06677853 0.48355055
000360 39 07 17 be c2 d9 20 3f 23 88 8e 3c 97 87 42 be
       -0.14748849 0.6283227 0.0173989 -0.18997036
000370 01 ae 59 be 60 1c 74 be de 11 c0 3d d6 17 cc 3d
       -0.21257783 -0.23838949 0.09378408 0.09965484
000380 6a e1 d4 bd 4d 81 4c bc f0 9a 5e 3d c1 40 06 be
       -0.10394557 -0.012482 0.05434698 -0.13110639
000390 9d 2b 27 3e e4 49 26 3d b9 f1 af 3d 08 51 ff bc
       0.16325231 0.04059781 0.08591027 -0.031166568
0003a0 ea 27 b7 bd 1c cd 23 3e 71 49 c1 3d a3 ef 8e 3e
       -0.0894316 0.15996212 0.09437836 0.27917203
0003b0 60 02 ba be e4 b2 32 bd 35 a1 40 3e db 06 05 3b
       -0.36329937 -0.043627635 0.18811496 0.0020298276
0003c0 35 da 0c bf 1a a9 1f 3e 82 2e d2 bd 19 3e 76 be
       -0.5502046 0.15591851 -0.10262777 -0.24047126
0003d0 6c 4e 28 3d df 03 98 3e 50 ac 2c 3e ec 12 45 be
       0.041090414 0.29690453 0.16862607 -0.192455
0003e0 4f 84 ad 3d ee 66 d4 bb f2 46 a6 bd 63 92 24 be
       0.084725015 -0.0064819967 -0.081190005 -0.16071467
0003f0 61 13 05 3d 6b cd ff 3d 3d 2b 15 be e8 a6 fa bb
       0.032489184 0.12490352 -0.14567275 -0.0076492913

fc3.bias f4 [32]
000000 5e b8 8f 3d 1b be a1 be 7f cb 72 3d ca e1 0d 3d
       0.07017587 -0.3159035 0.0592761 0.034639157
000010 db 72 65 3d 2d cc 1a 3d 34 2b 8f 3e 2f 97 d4 3d
       0.056017738 0.037792373 0.2796265 0.103803985
000020 d2 d3 02 bd b8 27 20 3e d9 cb 89 bd 97 d8 d7 3d
       -0.03194029 0.15640152 -0.06728334 0.10539358
000030 14 08 02 be b3 98 a7 3e 40 27 fe 3c 4c 82 9f bd
       -0.12698394 0.32733688 0.031024575 -0.07788524
000040 5e 1d 79 3e fe ba 7b bd bf 4a 81 bd cd f1 57 3d
       0.24327609 -0.061457627 -0.06313085 0.052720834
000050 b4 aa c6 bd 16 93 11 be 5d c5 82 3e bd 12 d7 bd
       -0.09700528 -0.14216265 0.255412 -0.10501621
000060 53 8a c6 3c fd a3 85 3c 38 09 0f be 7b 13 8f 3c
       0.02423588 0.016313547 -0.1396836 0.017465344
000070 5f 0b 0c 3c 56 18 94 bd 30 5e 88 bc 29 dc 58 3e
       0.008547633 -0.07231204 -0.016646475 0.21177734

fc4.weight f4 [2, 32]
000000 8f 65 f3 3e 5f 57 b8 be f1 08 2d bf 05 ba dd bd
       0.4753842 -0.3600416 -0.6759177 -0.10826496
000010 d9 3f d5 be 6a 8c a3 be f6 e3 43 bd e1 53 a3 3e
       -0.41650274 -0.31943065 -0.047824822 0.31899932
000020 38 bf a7 3e f6 e8 f1 bf 03 2b d9 3d 0c 7a ad 3e
       0.32763076 -1.8899219 0.10603907 0.33882177
000030 ed b3 dc 3e 5c 6f 5f bf 54 8a 33 3f 32 3b a9 be
       0.43106022 -0.87279296 0.70132947 -0.33052975
000040 d8 ef 2f bd f5 3e bb be 4c 96 14 3f 4e 4d b0 bf
       -0.042953342 -0.3657147 0.58041835 -1.3773592
000050 15 e7 0d 3f 7f 9b a8 3e d2 79 b7 bf 12 12 8c 3f
       0.5543073 0.32931134 -1.4334052 1.0943015
000060 ea 1c 0f 3f a4 e9 0f be 1f a8 ba 3d 5e 65 09 bf
       0.55903494 -0.1405397 0.09114098 -0.536703
000070 1d d7 b7 bd 86 e1 a3 bf 84 27 a3 3d 13 0a 56 bf
       -0.089765765 -1.2803199 0.079665214 -0.8360912
000080 8b 47 7f be e0 e8 04 3f ae 02 f7 3e fd f5 ba bf
       -0.24929635 0.5191784 0.48244232 -1.460632
000090 e4 11 96 bd f9 f5 9b bf 88 64 6b bf 32 fd 2d bf
       -0.07327631 -1.218444 -0.91950274 -0.6796447
0000a0 d2 d1 9d bf a4 de 0e 3e 4b 2f 50 3f d0 ca 5a bf
       -1.2329657 0.13952118 0.81322163 -0.8546572
0000b0 c4 64 14 3f fa ed 85 3d 2c 6f 02 bf ee 9e 8d 3e
       0.57966256 0.06539531 -0.50950885 0.27660316
0000c0 98 97 b6 bf b1 c3 ca 3d 38 8f 66 be f2 48 af 3e
       -1.4265013 0.099006064 -0.22515571 0.3423534
0000d0 f4 f3 f8 be eb db 31 bf c0 fe 8a 3e d4 80 4d bd
       -0.4862362 -0.69476193 0.27147484 -0.05017169
0000e0 ae f6 9b be 9e aa 29 3f a7 f0 2d 3f 0f 70 e4 3e
       -0.3046164 0.66275966 0.6794533 0.44616744
0000f0 a0 1b 75 3f c8 1f 64 3e c7 bf 2e 3f 32 a7 01 3f
       0.9574528 0.22277749 0.6826138 0.50645745

fc4.bias f4 [2]
000000 f6 36 03 be bb f8 46 be
       -0.12813935 -0.1943082
