best_weights_0.pth (torch_old, 55713 bytes, 8 tensors)

fc1.weight f4 [128, 24]
0	0x3e4af0d0	0.19818425
1	0xbe3c0162	-0.18359903
2	0x3d0f1e5e	0.03494107
3	0xbdeb0a10	-0.11476529
4	0x3d9ea2f7	0.07745927
5	0x3cf55026	0.029945444
6	0x3d72e721	0.059302453
7	0xbdeabece	-0.11462174
8	0x3e39fb8a	0.18162361
9	0xbe5a24e6	-0.21303138
10	0x3c8cf717	0.017207665
11	0xbe0d0d3e	-0.13774583
12	0x3e056f63	0.13030772
13	0xbbb85331	-0.0056251516
14	0x3be6aa12	0.007039317
15	0xbe0cf7eb	-0.13766448
16	0x3e40f4a4	0.18843323
17	0xbe669060	-0.22516012
18	0xbc857d8b	-0.016295215
19	0xbd72d1f6	-0.059282266
20	0x3e124af7	0.1428641
21	0xbe6e65ac	-0.23280972
22	0x3a53283c	0.00080550066
23	0xbd74d102	-0.059769638
24	0x3d960cb6	0.07326643
25	0x3d6718bf	0.056420084
26	0x3bf0a45d	0.0073438124
27	0xbd39d367	-0.045367625
28	0x3e85b766	0.26116484
29	0xbe73ccaf	-0.2380855
30	0x3d227a1f	0.039667245
31	0xbd3d9773	-0.04628701
32	0x3d495380	0.049151897
33	0x3d911db9	0.07085747
34	0x3c048ca8	0.008090176
35	0x3d39e409	0.045383487
36	0x3dff8a77	0.12477582
37	0xbe9088a5	-0.28229252
38	0xbb13929c	-0.0022517806
39	0x3d329ab2	0.04360456
40	0x3bd4bc1f	0.0064921523
41	0x3d8f7267	0.070042424
42	0x3b00199e	0.001954652
43	0x3da0caed	0.07851205
44	0x3d9604c9	0.073251314
45	0xbd0daf33	-0.03459091
46	0xbd06a3c0	-0.032871008
47	0x3da0d31a	0.078527644
48	0xbd219a00	-0.039453506
49	0x3e1449b7	0.14481245
50	0xbce65f9e	-0.028121766
51	0x3d7a91e5	0.061174292
52	0xbeaab472	-0.33340794
53	0xbeb6f57a	-0.3573416
54	0x3c6aacd9	0.014323437
55	0x3d5b935b	0.053607326
56	0x3c27487d	0.010210154
57	0x3e2c1fdc	0.16809028
58	0xbca1f462	-0.019769851
59	0x3d8def72	0.06930436
60	0xbe0c42cd	-0.13697357
61	0xbefd6adf	-0.494956
62	0x3c7b03b9	0.015320712
63	0x3d989a9b	0.07451364
64	0x3d73ad97	0.05949172
65	0x3e2ace6e	0.16680309
66	0x3d1723c9	0.03689936
67	0xbcadbf5c	-0.021209411
68	0xbc4a3454	-0.012341578
69	0xbe9f45ff	-0.3110809
70	0x3cc809e8	0.024418786
71	0xbc20be08	-0.009810932
72	0x3e7242bc	0.2365827
73	0xb8eb3272	-0.000112150694
74	0xbd41a3ed	-0.047275472
75	0xbcc895eb	-0.024485549
76	0xbd4c4d4b	-0.0498784
77	0xbdcf346b	-0.1011742
78	0xbdc916f0	-0.09818828
79	0xbccb3637	-0.024806125
80	0x3e6f23cc	0.23353499
81	0x3b4ee6cb	0.0031570669
82	0x3d0511d1	0.032487694
83	0x3ca51f4f	0.02015653
84	0xbd7473a4	-0.059680596
85	0xbdae09e4	-0.0849798
86	0x3d6376d5	0.05553325
87	0x3ca61d7c	0.020277731
88	0x3e6f7560	0.23384619
89	0x3bb6709a	0.0055676224
90	0xbd4050ec	-0.046952173
91	0x3d58537a	0.052813984
92	0xbd3701e2	-0.04467953
93	0xbdfde3df	-0.123969786
94	0xbd08f005	-0.033432025
95	0x3d590bf5	0.05298992
96	0x3be8584b	0.0070906035
97	0xbc94e95b	-0.018177679
98	0x3b49e57e	0.0030806954
99	0x3c496a5e	0.012293426
100	0x3eb106ea	0.34575588
101	0x3e53e415	0.20692475
102	0x3bb9fc09	0.005675797
103	0x3ca9574f	0.020671515
104	0xbd46e667	-0.048559573
105	0xbc39ebdb	-0.011347736
106	0xbd240fc9	-0.040054116
107	0xbd07c892	-0.033150263
108	0x3c251e3d	0.01007801
109	0x3e0d8246	0.13819227
110	0xbd318043	-0.04333521
111	0xbd3c85ca	-0.04602603
112	0x3d38426e	0.044985227
113	0xbd7d07a8	-0.06177488
114	0xbdaa1ef0	-0.08306682
115	0xbd0d5a6d	-0.034510065
116	0xbe52ad55	-0.20573933
117	0xbdceafbd	-0.10092113
118	0xbd6a4ae3	-0.057200324
119	0xbd7c9482	-0.061665066
120	0x3e0f8231	0.14014508
121	0x3e047a88	0.12937367
122	0xbd3fe4f4	-0.046849206
123	0x3dc7fed6	0.09765403
124	0x3ca5796b	0.020199498
125	0xbe099057	-0.13433968
126	0xbcad2373	-0.021135068
127	0x3e03a746	0.12856779
128	0x3da1ef97	0.07907026
129	0x3dd59d8b	0.104304396
130	0xbb80e15c	-0.003933115
131	0x3ddf11c0	0.108920574
132	0xbde3bc83	-0.1111994
133	0x3e13cfd0	0.14434743
134	0xbce2c67d	-0.027682537
135	0x3dee053f	0.11622094
136	0x3d9c4f7c	0.07632348
137	0x3dc41bb5	0.09575597
138	0xbcb9da32	-0.022687051
139	0x3e1ca33f	0.15296648
140	0xbe616f68	-0.22015154
141	0x3e98bdf7	0.29832432
142	0x3d2185cc	0.03943424
143	0x3e1b77a4	0.15182358
144	0x3de95d0f	0.11394703
145	0x3e2a2ac0	0.1661787
146	0x3c8e5e73	0.017379021
147	0x3e2c7736	0.1684235
148	0x3eae6f74	0.34069407
149	0x3db2f040	0.0873723
150	0xbd330d78	-0.043714017
151	0x3e27fafa	0.16404334
152	0x3dc76ac7	0.09737163
153	0x3e3e6dda	0.18596593
154	0xbc1eedc4	-0.009700242
155	0x3df74497	0.12073629
156	0x3e3e96b3	0.18612175
157	0x3d5d2fa4	0.05400051
158	0xbca59d17	-0.020216508
159	0x3df4c0d8	0.119508445
160	0x3dfb7534	0.12278214
161	0x3e4a93a6	0.19782886
162	0xbc96cd6a	-0.018408496
163	0x3da8c608	0.082408965
164	0x3d46cd1c	0.04853545
165	0xbe1d416f	-0.15356992
166	0x3cc2ec32	0.023794267
167	0x3daac416	0.08338182
168	0x3da89fa7	0.08233576
169	0x3e043035	0.12909015
170	0x3c3d1125	0.011539732
171	0xbd258aeb	-0.040415686
172	0x3d8fc9f2	0.0702094
173	0x3cf9e38a	0.030504007
174	0x3cf2ac80	0.02962327
175	0xbd1a82af	-0.037722286
176	0x3dacd7c8	0.084395945
177	0x3df35655	0.11881701
178	0xbcbbc9e9	-0.022923427
179	0xbd4bc90e	-0.049752288
180	0x3d32b790	0.04363209
181	0x3cc622cf	0.02418652
182	0xbd5cd397	-0.053912725
183	0xbd4d458a	-0.050115146
184	0x3d4f7db4	0.05065699
185	0x3dc1ffaa	0.09472592
186	0xbce863d6	-0.028367918
187	0xbe26b30a	-0.16279235
188	0x3e44a266	0.19202575
189	0xbdbf972a	-0.09355004
190	0x3a4c909b	0.00078035303
191	0xbe2dffad	-0.16992064
192	0x3df84a9c	0.121236056
193	0xbe8c8e55	-0.2745234
194	0xbcc1e251	-0.023667486
195	0xbe4b86cc	-0.1987564
196	0x3e185ecd	0.14879914
197	0x3e046586	0.12929353
198	0x3c075289	0.008259424
199	0xbe585f8f	-0.21130203
200	0x3dcc5c9b	0.099786006
201	0xbe91718f	-0.2840695
202	0xbc9528c7	-0.01820792
203	0xbda1e4e4	-0.079049855
204	0x3d5939b3	0.053033542
205	0x3e16a88d	0.14712735
206	0x3af265fc	0.0018493528
207	0xbdc4f208	-0.09616476
208	0x3d8816f1	0.06645001
209	0xbea3b5ba	-0.31974584
210	0x3d225f85	0.039641876
211	0xbe166204	-0.14685827
212	0xbd45fd77	-0.048337426
213	0x3e044226	0.12915859
214	0xbd1e82e6	-0.038699053
215	0xbe2812da	-0.16413441
216	0x3d5ab6f6	0.05339714
217	0x3cd719c1	0.026257398
218	0x3cf415e8	0.029795602
219	0x3d387490	0.045033038
220	0xbea2b8a3	-0.31781492
221	0xbe2f1f6d	-0.17101832
222	0x3d2070ff	0.03917026
223	0x3d013709	0.031546626
224	0x3d8a7b57	0.067618065
225	0x3d99ba4e	0.07506238
226	0x3b3dac3b	0.0028941769
227	0x3d814270	0.063115
228	0xbe2995b2	-0.1656101
229	0x3d94f91f	0.072740786
230	0x3c8caae7	0.017171336
231	0x3d603fbf	0.054748293
232	0x3e1f7745	0.15572841
233	0x3d61cd6c	0.055127546
234	0xbd34f5ed	-0.044179846
235	0xbc967417	-0.018365903
236	0x3d890cb0	0.06691873
237	0x3f0a9ed0	0.5414858
238	0x3c46da9f	0.012137084
239	0xbc12d04e	-0.0089607965
240	0xbdaca16b	-0.084292255
241	0xbe5fa485	-0.21840103
242	0xbc1ac2ee	-0.009445889
243	0x3c832805	0.016010294
244	0x3d6ea2db	0.05826078
245	0x3f08cbcd	0.53435975
246	0x3cba0979	0.022709595
247	0x3cc1b43b	0.02364551
248	0xbd97d598	-0.07413787
249	0xbe51d2fa	-0.20490637
250	0x3c3cd6a8	0.011525787
251	0x3d1c3cd9	0.038143966
252	0xbc70258a	-0.0146573875
253	0xbd5d9494	-0.054096773
254	0xbd23ccc0	-0.039990187
255	0x3cdc849f	0.026918707

fc1.bias f4 [128]
0	0x3d9966e4	0.07490328
1	0xbc4dd4c9	-0.012562939
2	0xbd0c369a	-0.03423176
3	0xbce5b9a5	-0.028042624
4	0xbd4b6123	-0.049653184
5	0xbcad3bdb	-0.021146705
6	0xbcea154b	-0.028574606
7	0xbc7fee30	-0.015620753
8	0x3d62b436	0.055347644
9	0xbdf106c1	-0.11768866
10	0x3d75c89f	0.06000578
11	0xbde6e742	-0.11274578
12	0x3cadc983	0.021214252
13	0xbd9e5f05	-0.07732967
14	0xbd9f2295	-0.07770268
15	0xbc71da78	-0.01476156
16	0xbc068b3d	-0.008211908
17	0xbbd44ac2	-0.0064786384
18	0xbaed5db1	-0.0018109587
19	0x3ce6e659	0.02818601
20	0xb987c5dc	-0.00025896623
21	0xbd244b83	-0.040111076
22	0xbcb7b79f	-0.022426425
23	0xbd39c763	-0.045356166
24	0xbc2dac23	-0.010600123
25	0xbda60d2b	-0.0810798
26	0xbcd45d90	-0.02592352
27	0xbd8bfb94	-0.06835094
28	0xbcb9f311	-0.02269891
29	0xbd3db9f7	-0.046319928
30	0x3d4f9987	0.050683524
31	0x3d914bfa	0.070945695
32	0x3b5098ac	0.003182928
33	0x3a1de732	0.00060235255
34	0x3c90c522	0.017672125
35	0x3c8a3ed2	0.016875658
36	0xbdc90da4	-0.09817055
37	0x3d249d9e	0.040189378
38	0xb94a78e1	-0.00019309252
39	0xbc972b13	-0.018453157
40	0x3c606803	0.013696673
41	0x3cb278ba	0.021786083
42	0x3d390b49	0.045176778
43	0xbbb97776	-0.005659993
44	0x3bc021f7	0.005863424
45	0x3b9750a2	0.0046177665
46	0xbc8d42b7	-0.017243726
47	0x3d4310d2	0.047623463
48	0x3c2e5f96	0.010642907
49	0x3d3bbc0b	0.04583363
50	0xbd90e66e	-0.07075201
51	0xbae1487a	-0.0017187737
52	0x3c42a111	0.011879222
53	0xbd321af1	-0.043482725
54	0x3d8352c3	0.0641227
55	0x3cbc8bd1	0.023015888
56	0x3c9b186f	0.01893255
57	0xbcbeb012	-0.023277316
58	0xbe028071	-0.12744309
59	0xbc8b8786	-0.017032396
60	0xbde1f87c	-0.11033723
61	0x3db37f92	0.087645665
62	0x3cbc50a2	0.022987667
63	0x3cbaa584	0.022784002
64	0x3c39a31d	0.011330393
65	0xbca9271e	-0.020648535
66	0x3de0639c	0.10956499
67	0xbd6b4704	-0.057440773
68	0xbbb3b4ef	-0.0054842154
69	0xbe06cc9d	-0.13163991
70	0xbcd73e78	-0.026274905
71	0x3c53fe79	0.012939089
72	0x3d7b22d7	0.061312523
73	0xbdf4f9f2	-0.11961736
74	0xbdac6c55	-0.084191
75	0x3d6f2ac6	0.0583904
76	0xbd15fbf1	-0.036617223
77	0x3cb2affc	0.021812432
78	0xbe00d0bd	-0.12579627
79	0xbdbac370	-0.09119308
80	0x3b1a751b	0.0023568335
81	0x3b1ef57f	0.0024255214
82	0x3d794596	0.060857378
83	0xbbadaa56	-0.0052998466
84	0x3d1406a7	0.036139157
85	0xbd7340e4	-0.059388056
86	0xbd3976d4	-0.04527934
87	0x3c853ac2	0.01626337
88	0xbc62b293	-0.013836521
89	0xbcd9681c	-0.026538901
90	0xbd2ffffa	-0.042968728
91	0xbdbe5411	-0.09293378
92	0x3da423bf	0.080146305
93	0x3c41af71	0.011821614
94	0xbcad7dfa	-0.021178234
95	0x3cf3d855	0.029766241
96	0xbd14efc1	-0.03636146
97	0xbc5d17e9	-0.01349447
98	0xbde9683c	-0.11396834
99	0x3b21cbc0	0.0024688095
100	0xbd897e44	-0.067135364
101	0xbd49ed98	-0.049298853
102	0xbab43722	-0.0013749341
103	0xbb59b807	-0.003322126
104	0xbde7800d	-0.113037206
105	0x3db6e09e	0.08929561
106	0x3d82ae8b	0.06380948
107	0x3d78a98b	0.060708564
108	0x3d3bdcb9	0.045864794
109	0x3d6ac545	0.057317037
110	0x3cc7eb9e	0.024404343
111	0xbd0fb361	-0.03508318
112	0xbba2b0a6	-0.004964906
113	0xbd864219	-0.06555576
114	0xbc95090b	-0.018192789
115	0x3e663b04	0.2248345
116	0xbcf0c979	-0.029392945
117	0xbdb440ea	-0.08801444
118	0x3e25b5bb	0.16182606
119	0x3ce96475	0.028490284
120	0x3be777d7	0.0070638466
121	0xbcc31096	-0.02381162
122	0xbca97f4c	-0.020690583
123	0xbd835a47	-0.064137034
124	0xbd29d067	-0.041458514
125	0xbd56b6fa	-0.052420594
126	0xbd1589f7	-0.036508527
127	0x3d369be3	0.04458226

fc2.weight f4 [64, 128]
0	0xbde86f1a	-0.11349316
1	0x39d444d2	0.00040487066
2	0x3d3bc14d	0.045838643
3	0xbd665a4f	-0.05623847
4	0xbe3afbbb	-0.1826009
5	0xbd8ebf3e	-0.0697007
6	0x3d91d76b	0.07121166
7	0x3d065400	0.032794952
8	0xbe47fcf4	-0.19530088
9	0x3dba46c0	0.09095526
10	0x3d600d7a	0.054700352
11	0x3d9feb01	0.07808495
12	0x3cb8f062	0.022575561
13	0xbcf60c88	-0.030035272
14	0xbe2935d6	-0.16524443
15	0x3ceea5bf	0.029131768
16	0x3d54c9d3	0.051950287
17	0x3d44c821	0.04804242
18	0x3da5d7e1	0.08097816
19	0x3dcec19a	0.1009552
20	0xbd087583	-0.033315193
21	0x3d598111	0.053101603
22	0xbcec9042	-0.028877381
23	0xbe05cadc	-0.13065666
24	0x3c9b7b3d	0.018979663
25	0x3b1aab6f	0.0023600718
26	0x3cf7e76f	0.030261723
27	0x3d8827d2	0.0664822
28	0xbe78e522	-0.24306157
29	0xbdbc1b70	-0.09184921
30	0xbd568a7e	-0.05237817
31	0x3d8ae2b3	0.06781521
32	0xbcea3320	-0.028588831
33	0xbd3e7a95	-0.046503622
34	0xbe6e70ba	-0.2328519
35	0x3c66d40d	0.014088643
36	0xbc434934	-0.011919308
37	0x3d9add2a	0.07561715
38	0xbdcb2f00	-0.09921074
39	0x3b0c569e	0.0021413933
40	0xbe5454a5	-0.20735414
41	0xbe399db8	-0.18126571
42	0x3dbb7db0	0.09154832
43	0xbd9711a1	-0.07376409
44	0xbe071ae9	-0.13193859
45	0xbcd87175	-0.026421288
46	0xbdc66114	-0.09686485
47	0xbd1ff760	-0.039054275
48	0xbce362c4	-0.027757056
49	0x3d4e9c80	0.05044222
50	0x3ddf7bd1	0.10912288
51	0x3d9134a2	0.07090117
52	0x3c6485e1	0.013947935
53	0x39b07076	0.00033653126
54	0x3d708d21	0.05872834
55	0x3d62ed82	0.055402286
56	0xbe90c5a3	-0.28275785
57	0xbc4ab156	-0.012371382
58	0x3d6ae4df	0.057347175
59	0xbe11ca44	-0.14237314
60	0x3e013c3f	0.12620638
61	0x3da5a31e	0.08087753
62	0xbc3bbd19	-0.011458659
63	0xbdfdd4dc	-0.12394115
64	0xbd63e1b5	-0.055635173
65	0x3da1bb8b	0.07897099
66	0x3d957d49	0.07299287
67	0x3d01bb17	0.031672563
68	0xbde448fd	-0.11146734
69	0x3d69b7cc	0.057060048
70	0x3dec4a6c	0.11537632
71	0xbe2804ed	-0.16408129
72	0x3d87a610	0.06623471
73	0xbc59afca	-0.01328654
74	0x3dbd4f0c	0.092435926
75	0x3d370d41	0.044690374
76	0x3d95860f	0.0730096
77	0x3d614f7d	0.055007447
78	0x3cf10afc	0.029424183
79	0x3d89dd6a	0.067316845
80	0xbd4ad3fd	-0.049518574
81	0xbe49e50e	-0.19716284
82	0xbe06d076	-0.13165459
83	0xbd4e2ec1	-0.050337557
84	0xbe26247a	-0.16224852
85	0x3d9b5768	0.07585031
86	0xbe2ad035	-0.16680987
87	0x3d3f52db	0.046709877
88	0xbe864e3e	-0.2623157
89	0x3c07e638	0.0082946345
90	0x3cd8e7c0	0.026477695
91	0xbd1a8e05	-0.037733097
92	0x3d47f5b4	0.048818305
93	0x3e0f4a07	0.13993083
94	0xbd23bbd5	-0.039974052
95	0x3c5227d6	0.01282688
96	0x3d0bc434	0.03412266
97	0xbbc838ae	-0.0061102724
98	0xbdcdd773	-0.10050859
99	0x3d922c83	0.07137396
100	0x3e281d7d	0.16417499
101	0x3dd40ca5	0.10353974
102	0xbcca2625	-0.024676392
103	0x3cc6e1ff	0.024277685
104	0x3d1fac3a	0.038982607
105	0x3e663818	0.22482336
106	0x3b9db10e	0.0048123663
107	0x3d35d954	0.044396713
108	0x3e4924a1	0.19642879
109	0x3d2f06e9	0.0427312
110	0xbe370cf1	-0.1787603
111	0x3dccc37e	0.09998225
112	0xbda3e334	-0.0800232
113	0x3e0a4664	0.13503414
114	0xbdb05300	-0.08609581
115	0x3c7806ce	0.015138341
116	0xbb1e38d4	-0.002414276
117	0x3d6d730c	0.057971045
118	0x3e150b7a	0.14555159
119	0xbe4c400a	-0.19946304
120	0x3d8c0ac3	0.0683799
121	0xbdfc45d3	-0.123180054
122	0xbd1d6e12	-0.03843505
123	0xbdde9b15	-0.10869423
124	0x3ceab491	0.028650554
125	0xbd18b88a	-0.037285365
126	0xbd423787	-0.047416236
127	0x3d820a28	0.063495934
128	0xbb843960	-0.00403516
129	0xbc31bf56	-0.010848841
130	0xbcc1b60a	-0.023646373
131	0x3c9a810d	0.018860364
132	0xbd3d6986	-0.046243213
133	0x3cdd9ab9	0.027051317
134	0xba87ac67	-0.0010351063
135	0xba5c00f3	-0.00083924754
136	0x3cde063c	0.027102582
137	0x3ceab251	0.028649481
138	0xbd26ee34	-0.040754512
139	0xbc35b977	-0.011091582
140	0xbaa60183	-0.0012665245
141	0xbcb39960	-0.02192372
142	0x3ce9ba87	0.028531326
143	0xbc5509e8	-0.01300285
144	0xbbde475f	-0.0067834104
145	0xba7312b0	-0.0009272499
146	0x3c2323d9	0.009957277
147	0xbc5bf005	-0.013423924
148	0xbd3bf6d7	-0.0458897
149	0xbc2055d4	-0.009786088
150	0x3d79adcc	0.06095676
151	0xbaa7fa68	-0.0012815716
152	0x3c48f59f	0.012265592
153	0x3c7afa18	0.015318416
154	0xbcb1dca2	-0.021711651
155	0x3c2c2184	0.010506038
156	0xbc99848c	-0.018739961
157	0xbcf624ea	-0.030046899
158	0x3c41a4f7	0.011819116
159	0xbcb717af	-0.02235016
160	0xbb3fdf4c	-0.0029277382
161	0x3a8c7ac0	0.0010717735
162	0xbb877792	-0.004134127
163	0xbcbcbde5	-0.023039768
164	0xbc64eb5c	-0.01397213
165	0x3bef243f	0.007298022
166	0xbc116eee	-0.008876545
167	0xbc31a851	-0.010843352
168	0xbd1f89c9	-0.03894976
169	0x3cd5a9b5	0.0260819
170	0x3a1b6c3e	0.000592891
171	0x3c96a321	0.018388333
172	0xbbdd7e74	-0.006759459
173	0xbac0a2ab	-0.0014696916
174	0x3c9bb93a	0.019009221
175	0x3b191696	0.002335941
176	0x3c0033a3	0.007824811
177	0xbd84f1fc	-0.06491467
178	0xba2fea27	-0.00067106116
179	0x3c5082ce	0.012726499
180	0xbcde2196	-0.027115624
181	0xbbdc9196	-0.0067312224
182	0x3aabf844	0.0013120254
183	0xbbc8ae64	-0.0061243046
184	0xbd6795ce	-0.05653935
185	0x3c25447a	0.010087127
186	0xbc8af09c	-0.016960435
187	0xbccb9631	-0.02485189
188	0x3b8012bd	0.003908484
189	0xbd3de607	-0.04636195
190	0xbb918b0f	-0.004441626
191	0x3cacdae1	0.021100463
192	0x389eb90a	7.568493e-05
193	0x3abfa07a	0.0014619969
194	0xba1d9820	-0.0006011743
195	0xbb9d4543	-0.0047995164
196	0xbc702e03	-0.014659408
197	0xbc70b8b3	-0.014692473
198	0xba11a421	-0.0005555768
199	0xbd1575d1	-0.03648931
200	0xbc567fe9	-0.01309202
201	0xbc1add5f	-0.009452193
202	0xbbf05777	-0.0073346454
203	0xbd05fb95	-0.03271063
204	0x3ce28b45	0.0276543
205	0xbcb8324b	-0.022484919
206	0x380d65a6	3.3711687e-05
207	0xbcbf25e7	-0.023333503
208	0x3c0e3010	0.008678451
209	0xbd1b8980	-0.037972927
210	0xbc7521a6	-0.014961636
211	0x3ce80038	0.028320417
212	0x3c303513	0.010754841
213	0xbc80c3de	-0.015718397
214	0xbce5366b	-0.02798005
215	0xbd2770c0	-0.04087901
216	0xbcf339f7	-0.029690726
217	0xbb35e9f3	-0.0027757853
218	0xbb7fc5fe	-0.0039027925
219	0x3cf137e6	0.0294456
220	0xbc5901ca	-0.013245055
221	0xbc14818e	-0.009064091
222	0x3a998724	0.0011713249
223	0x3ce96d31	0.02849445
224	0xbc4752eb	-0.012165765
225	0x3ca2b99f	0.019863902
226	0xbccbf5ec	-0.024897538
227	0x3cc7b0a6	0.024376225
228	0xbc90b38b	-0.017663738
229	0x3c926dc9	0.017874615
230	0x3c525edc	0.012839999
231	0x3c84f4ab	0.016229948
232	0xbcde13c9	-0.027109044
233	0x3d2baa48	0.04191044
234	0xbd034d29	-0.032056008
235	0xbd2f82c1	-0.042849306
236	0x3d5061d0	0.05087453
237	0xbc716318	-0.014733098
238	0xbd1f1a86	-0.038843654
239	0xbbd59524	-0.006518023
240	0xbb5a4955	-0.003330787
241	0xbc03d4e4	-0.008046363
242	0xbb7e0ad6	-0.0038763783
243	0xbd139e86	-0.03603985
244	0x39441639	0.00018700295
245	0xbc008a84	-0.007845525
246	0x3af57651	0.0018727278
247	0xbd0f4776	-0.03498026
248	0xbbb87a7d	-0.005629836
249	0xbb643865	-0.0034823653
250	0xbb698bde	-0.0035636346
251	0x3bbab16d	0.0056974203
252	0xbc3cecf6	-0.011531105
253	0xba9b4551	-0.001184622
254	0xbc821256	-0.015877884
255	0x3c859e40	0.016310811

fc2.bias f4 [64]
0	0xbd858e55	-0.06521288
1	0xbc331594	-0.010930438
2	0x82acc458	-2.5385824e-37
3	0x8040ae80	-5.94007e-39
4	0xbdb31f2a	-0.087461784
5	0x8201d82c	-9.539461e-38
6	0x3ca81af5	0.020520667
7	0xbb371834	-0.002793801
8	0xbcf8f1a7	-0.030388666
9	0xbd5eccd4	-0.054394558
10	0x3dde9bbe	0.10869549
11	0xbd5cb5f7	-0.053884473
12	0xbd32f202	-0.043687828
13	0x3d8a2af0	0.06746471
14	0x3d706db0	0.058698356
15	0xbe0b5fef	-0.13610815
16	0xbc74b05b	-0.014934625
17	0xbc8665b9	-0.016405927
18	0xbd98f4da	-0.07468577
19	0x3d9dd6ab	0.0770696
20	0xbe279141	-0.16364004
21	0xbc83715a	-0.016045261
22	0xbc985e04	-0.018599518
23	0xbe15ae85	-0.14617355
24	0x3df22241	0.1182294
25	0x3de466b0	0.111523986
26	0x3d785456	0.060627304
27	0xbde11189	-0.10989673
28	0xbcba5710	-0.022746593
29	0xbe153388	-0.14570439
30	0xbc7cf3f6	-0.015439024
31	0xbc950c30	-0.018194288
32	0x3bdda9b2	0.006764614
33	0x3dc45754	0.09586969
34	0x3bd89fd4	0.00661085
35	0xbc5f3bae	-0.013625069
36	0x84076a32	-1.5917936e-36
37	0x3c8fb8e2	0.017544214
38	0xbd042334	-0.032260135
39	0xbd807ad2	-0.06273426
40	0x3d3be845	0.045875806
41	0xbc1e8a2f	-0.0096765
42	0x3ad486ed	0.0016214527
43	0x3d385300	0.04500103
44	0x3e19e845	0.1503001
45	0x3b9f0d96	0.0048539145
46	0xbdc39317	-0.095495395
47	0xbd0b3740	-0.033988237
48	0xbc4e91bf	-0.012607991
49	0x3cb0ec9e	0.021597203
50	0xbca267c7	-0.019824876
51	0x3d7486de	0.059698932
52	0x3d94c3f0	0.072639346
53	0xbaf5c5f0	-0.0018751007
54	0xbde49ef8	-0.111631334
55	0xbca53df8	-0.02017115
56	0x3cd95cc2	0.026533488
57	0xbdb1a77a	-0.08674522
58	0xbda83442	-0.082130924
59	0x3cebc507	0.028780473
60	0xbdbdfbec	-0.09276566
61	0xbe15699f	-0.14591072
62	0xbdb89f8a	-0.09014805
63	0x3c94a307	0.018144144

fc3.weight f4 [32, 64]
0	0x3c8a9619	0.016917275
1	0x3cb809ed	0.02246567
2	0x0176a4a0	4.5301177e-38
3	0x829f4248	-2.3400994e-37
4	0x3b2cabca	0.0026347511
5	0x0122b8e0	2.9887342e-38
6	0xbd6c30c6	-0.0576637
7	0xbe604f8d	-0.21905346
8	0x3ea0ebc4	0.31429875
9	0xbd4ca037	-0.04995748
10	0x3c4142c1	0.0117957005
11	0x3d958455	0.07300631
12	0xbd6e973d	-0.0582497
13	0xbe806365	-0.25075832
14	0x3e7de09a	0.2479271
15	0xbe4e4eb8	-0.20147216
16	0xbea7445f	-0.3266935
17	0x3b8b7b01	0.0042566066
18	0x3dcaaecd	0.09896622
19	0xbe06f6b2	-0.13180044
20	0xbec7e31f	-0.39040467
21	0xbe2ae6e4	-0.1668964
22	0xbeada2fe	-0.33913416
23	0xbe02e6d4	-0.12783366
24	0x3e071d80	0.13194847
25	0xbe1c29ce	-0.15250322
26	0xbd913347	-0.070898585
27	0x3ddd2604	0.107982665
28	0x3d9b19d5	0.075732864
29	0x3dbf2e21	0.0933497
30	0xbde62522	-0.11237551
31	0x3dbcc93b	0.09218069
32	0xbe7d487b	-0.2473468
33	0xbdf2bd7d	-0.11852548
34	0x3c85f444	0.016351826
35	0x3bcb9f1e	0.0062140366
36	0x821a237c	-1.1324317e-37
37	0xbd4f64cd	-0.05063324
38	0xbd89abae	-0.067221984
39	0x3df35975	0.11882297
40	0xbd9ce777	-0.07661336
41	0xbe07b660	-0.13253164
42	0x3e0515bf	0.12996577
43	0x3d4d21d8	0.050081104
44	0xbe8cadf0	-0.27476454
45	0xbdf603a3	-0.120124124
46	0xbe24766b	-0.16060798
47	0xbbe910ed	-0.0071126134
48	0x3e247a76	0.1606234
49	0xbb7f0c3d	-0.0038917207
50	0x3e0f56cf	0.13997959
51	0x3cc6db62	0.024274532
52	0x3dede83f	0.11616563
53	0x3ebe4039	0.37158373
54	0xbdcf5edb	-0.10125514
55	0x3d091444	0.033466592
56	0x3dec55ea	0.11539824
57	0xbdfefe6f	-0.12450873
58	0x3e04dedb	0.12975638
59	0x3cf1f816	0.029537242
60	0xbe6727b8	-0.22573745
61	0xbe1bb73f	-0.15206622
62	0xbd94bf9f	-0.07263111
63	0xbe89c445	-0.26907554
64	0x39389677	0.0001760366
65	0x3c8bafe0	0.017051637
66	0x80846700	-1.2159235e-38
67	0x00b005c0	1.616511e-38
68	0x3df54036	0.11975138
69	0x0008ea00	8.18627e-40
70	0xb38bb29b	-6.50518e-08
71	0xbe0c7619	-0.13716926
72	0xbe86479d	-0.26226512
73	0x3e683296	0.22675547
74	0xbd6ae7eb	-0.05735008
75	0x3de4de24	0.111751825
76	0xbda89f8d	-0.08233557
77	0xbe1e91c7	-0.15485297
78	0x3de120fc	0.109926194
79	0xbeb8a8db	-0.36066326
80	0xbcaa0e8b	-0.020758888
81	0xbcf2c063	-0.029632753
82	0xbd57812d	-0.052613426
83	0xbdee5c49	-0.11638696
84	0xbd90546a	-0.07047351
85	0x3d6634cf	0.056202706
86	0xbe422c0d	-0.18962117
87	0x3d8c9ad6	0.0686547
88	0xbe4bd0d4	-0.1990388
89	0xbe888436	-0.2666337
90	0x3d73a100	0.059479713
91	0x3d5b7ea3	0.053587567
92	0x3e6819db	0.22666113
93	0xbbaaaebe	-0.005208819
94	0x3db5db6a	0.088797405
95	0x3b366304	0.0027830014
96	0x3c54d115	0.012989302
97	0xbda77895	-0.08177296
98	0x3cd2937c	0.025705092
99	0xbd47ace9	-0.048748884
100	0x0352c4a6	6.1939195e-37
101	0xbe1af095	-0.15130837
102	0xbdcc1047	-0.09964042
103	0x3adc6691	0.0016815235
104	0x3d45c9e1	0.04828823
105	0xbe890455	-0.26761118
106	0x3e0de98e	0.13858625
107	0x3cebb7dc	0.028774194
108	0xbd8439a7	-0.06456309
109	0xbe52c12d	-0.20581503
110	0xbeda9c10	-0.4269719
111	0x3e3f0b07	0.1865655
112	0xbdf85e77	-0.12127393
113	0xbdaaa5fe	-0.08332442
114	0x3d8ab229	0.067722626
115	0xbe114372	-0.14185885
116	0x3e494662	0.19655755
117	0x3e00da76	0.12583336
118	0xbe1320b8	-0.1436795
119	0xbe11a649	-0.14223589
120	0x3ddcc779	0.10780234
121	0xbe4ed8b7	-0.20199858
122	0xbda1a6bb	-0.078931294
123	0xbbed91da	-0.007250053
124	0xbe03cdd4	-0.12871486
125	0x3e17075a	0.14748898
126	0x3e669a3d	0.22519775
127	0x3d4c2fc1	0.04985023
128	0x800a79b4	-9.62014e-40
129	0x8012b720	-1.718732e-39
130	0x00356740	4.90432e-39
131	0x0031a6e0	4.559803e-39
132	0x8129c64c	-3.118267e-38
133	0x003fcd60	5.859311e-39
134	0x81366898	-3.3503163e-38
135	0x80618add	-8.957858e-39
136	0x81b0fa34	-6.5011213e-38
137	0x00062bbc	5.66702e-40
138	0x80284c7e	-3.70086e-39
139	0x0034db92	4.854213e-39
140	0x8080ae9d	-1.1817583e-38
141	0x8104a45c	-2.4362493e-38
142	0x8031dc60	-4.578995e-39
143	0x8013d000	-1.819491e-39
144	0x8124380e	-3.016226e-38
145	0x803af080	-5.412734e-39
146	0x8022d6c0	-3.199445e-39
147	0x811c4de5	-2.870856e-38
148	0x800126c0	-1.05736e-40
149	0x80890359	-1.2582664e-38
150	0x80cfa878	-1.9070383e-38
151	0x80380980	-5.146196e-39
152	0x8043ba48	-6.219803e-39
153	0x8046797f	-6.47207e-39
154	0x8045f9d6	-6.426273e-39
155	0x820cd8f2	-1.0347836e-37
156	0x801398f0	-1.799738e-39
157	0x828fc6ac	-2.1125994e-37
158	0x004014d8	5.884949e-39
159	0x0021d9a6	3.108649e-39
160	0x004688b9	6.477532e-39
161	0x81a4e17c	-6.056764e-38
162	0x8036b050	-5.022366e-39
163	0x8031e260	-4.581147e-39
164	0x80109230	-1.52181e-39
165	0x82113345	-1.0667631e-37
166	0x0039c352	5.304691e-39
167	0x00436e54	6.192557e-39
168	0x80edae7a	-2.1827603e-38
169	0x8192ab8c	-5.387809e-38
170	0x804747c0	-6.546059e-39
171	0x80965e3f	-1.3809134e-38
172	0x81b86214	-6.773166e-38
173	0x8101eadd	-2.3862064e-38
174	0x00209f00	2.995774e-39
175	0x8013a994	-1.805708e-39
176	0x00577a40	8.033543e-39
177	0x806cc848	-9.990081e-39
178	0x003b54a6	5.44866e-39
179	0x82252ec4	-1.2135707e-37
180	0x80f1fc00	-2.2222755e-38
181	0x803b2240	-5.430581e-39
182	0x801c7580	-2.613545e-39
183	0x8040e5e0	-5.959935e-39
184	0x80efcad2	-2.2021442e-38
185	0x80049ca0	-4.23528e-40
186	0x81277eae	-3.0763944e-38
187	0x8029edee	-3.850608e-39
188	0x80a57578	-1.5194997e-38
189	0x80431f00	-6.164099e-39
190	0x80184690	-2.229365e-39
191	0x8128cb4e	-3.100259e-38
192	0xbd1084ea	-0.035283007
193	0x3cf7078e	0.03015497
194	0x830ca7f4	-4.1335103e-37
195	0x808ad000	-1.2747915e-38
196	0x3e1e48f6	0.1545752
197	0x800ed280	-1.36121e-39
198	0xbc80582b	-0.015667042
199	0xbe180a04	-0.1484757
200	0xbebd6ea2	-0.3699847
201	0x3e3ac0c7	0.18237601
202	0xbd121c1f	-0.03567135
203	0x3e3a1c93	0.18174963
204	0xbd25d7cc	-0.040489003
205	0xbe660ca5	-0.22465761
206	0x3de15ee2	0.110044256
207	0xbe5e82e9	-0.21729626
208	0x3de52140	0.111879826
209	0xbe1b5997	-0.15170895
210	0xbd6d5685	-0.05794384
211	0xbe13cc3d	-0.1443338
212	0xbddcc064	-0.10778883
213	0xbd77cd2c	-0.0604984
214	0xbe4e135a	-0.2012457
215	0xbd555218	-0.052080244
216	0xbe8d8eaa	-0.27647907
217	0xbe9887b8	-0.29791045
218	0x3e548419	0.20753516
219	0xbda75f3e	-0.08172463
220	0x3e460ca3	0.19340758
221	0x3c8e1361	0.017343225
222	0x3dd89cdb	0.10576793
223	0xbdeab81f	-0.114608996
224	0x3d40463d	0.046941984
225	0xbce3484d	-0.027744437
226	0x3d6a1a85	0.057154197
227	0x3c570fe4	0.013126347
228	0x83a01f87	-9.411193e-37
229	0xbe5502a7	-0.20801793
230	0xbceca410	-0.028886825
231	0x3d8b96bc	0.0681586
232	0x3e303814	0.17208892
233	0xbe1d430e	-0.1535761
234	0x3e358c59	0.1772932
235	0x3e07460c	0.13210315
236	0xbe10e3f7	-0.14149462
237	0xbe891570	-0.26774168
238	0xbe8f4b88	-0.27987313
239	0x3e6334d5	0.22188123
240	0xbe26b047	-0.16278182
241	0xbe227647	-0.15865432
242	0xbceb4d6b	-0.02872344
243	0xbdf6b0ae	-0.12045418
244	0x3e8aad53	0.2708536
245	0xb8838165	-6.2706684e-05
246	0xbdae4778	-0.08509725
247	0xbe97f586	-0.29679507
248	0x3dadfc51	0.08495391
249	0xbe92e85b	-0.28692898
250	0xbdd9f88c	-0.1064311
251	0x3c4f1fdf	0.012641876
252	0xbdad1ab9	-0.084523626
253	0x3e0b7c00	0.13621521
254	0x3e56f494	0.20991737
255	0xbce5e80b	-0.028064748

fc3.bias f4 [32]
0	0xbd8c53fd	-0.06851957
1	0xbca30e64	-0.019904323
2	0x81b55c10	-6.6621e-38
3	0xbdaf8659	-0.08570547
4	0xbcec0c98	-0.028814599
5	0x3e01a3c6	0.12660131
6	0x3cf22448	0.029558316
7	0x3e14f3ef	0.14546178
8	0xbdaf990f	-0.085741155
9	0x3e175c84	0.14781386
10	0x3e1a7487	0.15083514
11	0xbd29b1f8	-0.04142949
12	0xbd30f616	-0.043203436
13	0xbd8d9d16	-0.069147274
14	0xbe324a7e	-0.17411229
15	0x3bc564f8	0.0060239993
16	0x3d94a77d	0.07258508
17	0xbd59246c	-0.05301325
18	0x3e69b5fe	0.22823331
19	0x3e4f09e6	0.2021862
20	0x3d2ca080	0.042145252
21	0xbce42fe8	-0.027854875
22	0xbd7312a9	-0.059343968
23	0xbd44c92b	-0.04804341
24	0x84904b58	-3.392343e-36
25	0x8b0b758c	-2.685886e-32
26	0x3e89ee04	0.26939404
27	0x3db9bda9	0.09069378
28	0x3d9e65b3	0.07734241
29	0x3e26265a	0.16225567
30	0x3dd61590	0.104533315
31	0xbe1d6d90	-0.15373826

fc4.weight f4 [2, 32]
0	0xbf88a98e	-1.0676744
1	0xbdcfa946	-0.10139708
2	0x82b6d11a	-2.6862515e-37
3	0x3e204645	0.15651806
4	0x3ebeffd0	0.37304544
5	0xbf5d2151	-0.8637896
6	0xbf04e96e	-0.51918685
7	0xbf578a39	-0.84195286
8	0xbe8a8403	-0.27053842
9	0xbf4d5a89	-0.8021627
10	0xc0129a18	-2.2906551
11	0xbe2f5b2c	-0.17124623
12	0xbe57f64b	-0.21090047
13	0xbe38d9cf	-0.18051837
14	0x3e29c0ff	0.16577528
15	0xbd8e4b51	-0.06947959
16	0x3f4aeb2c	0.79265094
17	0x3f0807b6	0.53136766
18	0x3cbe2f0d	0.023215795
19	0xbcb84b82	-0.022496942
20	0xbd267474	-0.040638402
21	0xbd9c09a5	-0.07619027
22	0xbed458f2	-0.4147411
23	0x3fa3ee1f	1.2807044
24	0x853d06c3	-8.887979e-36
25	0x0a767660	1.1866733e-32
26	0xbe920b4d	-0.28524247
27	0xbf568e33	-0.8381073
28	0x3e19d4db	0.15022604
29	0xbf3c63c1	-0.7358971
30	0x3e3f4080	0.18676949
31	0x3e608f77	0.21929727
32	0x3ed9258d	0.4241146
33	0x3f73e933	0.9527771
34	0x002932e8	3.783517e-39
35	0x3f8ef272	1.1167738
36	0xbee288ae	-0.44244903
37	0x3dfcc9fe	0.123432145
38	0xbec95f62	-0.39330584
39	0xbc66a5ff	-0.0140776625
40	0xbb4acea8	-0.003094593
41	0x3e9c0c0d	0.30477944
42	0xbf04e530	-0.5191221
43	0xbe306503	-0.17226033
44	0xbf1b7217	-0.6072096
45	0xbeb1cf74	-0.34728587
46	0x3f92c2b1	1.1465665
47	0xbef8d0c5	-0.4859678
48	0xbdf63be0	-0.12023139
49	0xbed367db	-0.41290173
50	0xbf998c8f	-1.199602
51	0xbf8b3eeb	-1.0878576
52	0x3f77e814	0.968385
53	0x3f722fa6	0.94603956
54	0xbebcccf3	-0.36875114
55	0xbeebabac	-0.46029413
56	0x83175ba2	-4.44801e-37
57	0x0a1c22eb	7.517694e-33
58	0x3e409ea3	0.18810515
59	0x3d1eeb78	0.03879878
60	0xbea6d46b	-0.32583937
61	0x3ee4aa7c	0.4466132
62	0xbec12f5c	-0.37731445
63	0xbedd1474	-0.43179667

fc4.bias f4 [2]
0	0x3cae64b6	0.021288257
1	0xbe85643e	-0.2605304
