best_weights_1.pth (torch_old, 55713 bytes, 8 tensors)

fc1.weight f4 [128, 24]
0.15906255 -0.05171726 0.02819243 0.02219454 0.68152726 -0.28148937 -0.028226636 0.035693962
-0.00035344868 -0.12869301 0.042692885 -0.09191228 0.25917324 -0.04320255 -0.039044924 -0.051329248
-0.019833779 -0.11846555 -0.024723692 -0.028462145 -0.4440863 0.5982967 0.024863277 -0.088392474
0.10590056 0.09053719 0.024547027 0.024118828 0.07474159 0.068502106 -0.0051977797 0.0160581
0.12323879 0.10109102 0.0027071591 0.0021353473 -0.08396171 0.102253035 -0.057337735 -0.0010920202
0.11865139 0.09815158 0.13101256 -0.07444 -0.10082744 0.17823502 0.07403317 -0.07393322
-0.023558903 0.060110178 -0.072346814 -0.005359805 -0.047739536 0.058178596 -0.045632094 -0.022939192
0.050942022 0.061053265 0.060448464 -0.011951988 0.045348357 -0.03748794 0.09953398 -0.004575823
0.04544833 0.03848513 -0.0094021885 -0.021762138 0.17483275 -0.13732481 -0.029776428 -0.023716865
0.118270054 0.026777089 0.024707207 0.073518634 0.03751874 -0.0473284 -0.062843524 0.06908202
0.08833603 0.054762736 -0.0044317986 0.079830304 0.16450638 0.2340184 -0.008534254 0.08998556
0.13717295 0.09484303 -0.034481183 0.24610402 0.29772982 0.292247 -0.05978797 0.2548529
0.24936917 -0.026808761 0.031399373 0.06277269 0.18537463 0.09215154 0.12573059 0.064385414
0.2288325 -0.0074227997 -0.12921672 0.07587188 0.18955734 0.019450793 -0.09598251 0.071972236
0.20873491 -0.0052300603 -0.042122595 0.02026815 0.069551975 0.03325022 0.019141538 0.020690667
-0.10385905 -0.07785118 -0.014465606 0.015847616 0.11251442 0.5188539 0.057231445 0.025302898
-0.053109795 -0.096070014 -0.03204568 -0.008118295 0.039625738 0.043147203 0.059215426 -0.016265247
-0.05073615 -0.112537496 0.09032382 0.034969978 0.19145425 -0.69926953 -0.04252061 0.057745803
0.051037457 -0.060989365 -0.123587005 0.004699119 0.16352032 0.043390818 -0.11612313 0.0035516648
0.06343835 -0.042804047 -0.07225001 0.030851007 0.14885916 -0.10497068 -0.09085234 0.024801867
0.07096639 -0.0430852 0.14596073 -0.0783583 0.068914786 -0.10991895 0.040617667 -0.07560056
0.19295983 0.021706123 -0.055846952 0.02853243 0.11177274 -0.1463045 -0.11104541 0.011186918
0.16241907 0.060154982 0.04344029 0.0444689 0.18267539 0.09163745 0.0135512175 0.053125415
0.139314 0.063062005 -0.0606458 -0.012806445 0.5004841 0.14621164 -0.061550695 -0.013414838
0.0100018615 -0.1934032 -0.016263388 0.040766135 0.06567192 0.37763953 -0.0023622743 0.03583837
0.020524245 -0.23343466 0.039413884 0.033231553 0.041154522 -0.07555157 0.005378339 0.009307804
-0.10601582 -0.24436206 -0.0340271 0.049490422 -0.07533444 -0.5682517 -0.07401945 0.036802083
-0.080017224 -0.06289585 0.0028041273 0.026398797 -0.50646955 -0.39348218 0.001547573 0.046467625
-0.08189434 -0.02793943 -7.461083e-05 0.015396951 -0.023942938 -0.113385975 0.025302919 -0.0020427473
-0.056062516 -0.08485894 -0.018319296 -0.00019673673 0.49132872 0.26242054 0.0040486217 0.016483882
0.061807513 -0.029148256 -0.056149427 -0.117240734 -0.30526093 -0.108419664 0.017903712 -0.14490828
0.15779701 -0.047823466 0.04687431 -0.034073815 -0.073493905 0.09527889 0.022873087 -0.055016834
00000000: 4be1 223e 7ad5 53bd d0f3 e63c 53d1 b53c
00000010: 9278 2e3f 601f 90be 8c3b e7bc d533 123d
00000020: 144f b9b9 1ac8 03be bcde 2e3d 813c bcbd
00000030: 5bb2 843e 28f5 30bd 92ed 1fbd 9e3e 52bd
00000040: 737a a2bc 119e f2bd 5789 cabc 7229 e9bc
00000050: 485f e3be f929 193f 12ae cb3c 1d07 b5bd
00000060: 65e2 d83d 906b b93d d916 c93c d994 c53c
00000070: 1e12 993d d54a 8c3d 2352 aabb 478c 833c
00000080: 9e64 fc3d cf08 cf3d 986a 313b 2ff1 0b3b
00000090: 1ef4 abbd 0a6a d13d f9da 6abd 1e22 8fba
000000a0: 80ff f23d b203 c93d 2828 063e 0074 98bd
000000b0: 9e7e cebd 3e83 363e b49e 973d 4d6a 97bd
000000c0: 9afe c0bc 1736 763d 912a 94bd 4ea1 afbb
000000d0: 888a 43bd ae4c 6e3d b8e8 3abd f9ea bbbc
000000e0: 95a8 503d fd12 7a3d cf98 773d 45d2 43bc
000000f0: 33bf 393d f48c 19bd 79d8 cb3d c9f0 95bb
00000100: 0728 3a3d 95a2 1d3d a30b 1abc 8346 b2bc
00000110: 5b07 333e e09e 0cbe b2ed f3bc df49 c2bc
00000120: 9237 f23d a05b db3c c566 ca3c f090 963d
00000130: 40ad 193d 6ddb 41bd 1bb4 80bd e07a 8d3d
00000140: 85e9 b43d e44e 603d 9f38 91bb 127e a33d
00000150: 5c74 283e 85a2 6f3e 41d3 0bbc 594a b83d
00000160: 1177 0c3e 103d c23d 243c 0dbd b102 7c3e
00000170: 0b70 983e 66a1 953e 3be4 74bd 147c 823e
00000180: a25a 7f3e 0c9e dbbc a19c 003d f88e 803d
00000190: d9d2 3d3e f2b9 bc3d 85bf 003e 80dc 833d
000001a0: 1153 6a3e f53a f3bb 6351 04be b762 9b3d
000001b0: 521b 423e 4557 9f3c 7a92 c4bd 2e66 933d
000001c0: 9bbe 553e ed60 abbb be88 2cbd 6409 a63c
000001d0: 4471 8e3d 6231 083d b7ce 9c3c 797f a93c
000001e0: 0eb4 d4bd 7170 9fbd 2601 6dbc dcd2 813c
000001f0: f66d e63d 9cd3 043f 856b 6a3d 0648 cf3c
00000200: a889 59bd 5bc0 c4bd 5542 03bd 9902 05bc
00000210: 994e 223d 1fbb 303d e08b 723d b23e 85bc
00000220: b6d0 4fbd 0f7a e6bd b2fb b83d ae3c 0f3d
00000230: 950c 443e 5403 33bf 172a 2ebd dd86 6c3d
00000240: a70c 513d fccf 79bd 2f1b fdbd 11fb 993b
00000250: df71 273e 92ba 313d f7d1 edbd 0cc3 683b
00000260: f7eb 813d 4c53 2fbd d0f7 93bd 40bb fc3c
00000270: 896e 183e defa d6bd cb10 babd 492d cb3c
00000280: d456 913d 1b7a 30bd bb76 153e 517a a0bd
00000290: 3223 8d3d 301d e1bd b65e 263d 77d4 9abd
000002a0: 4397 453e 0ad1 b13c c6bf 64bd d8bc e93c
000002b0: 1be9 e43d d9d0 15be c76b e3bd 5649 373c
000002c0: 2f51 263e 1265 763d 72ee 313d 0525 363d
000002d0: 420f 3b3e 6aac bb3d ed05 5e3c 099a 593d
000002e0: 54a8 0e3e a726 813d bb67 78bd 20d2 51bc
000002f0: ba1f 003f 81b8 153e 951c 7cbd e9c9 5bbc
00000300: d9de 233c 7d0b 46be cc3a 85bc 64fa 263d
00000310: 007f 863d f859 c13e 63d0 1abb 41cb 123d
00000320: 7622 a83c 7f09 6fbe 7470 213d cf1d 083d
00000330: a591 283d c8ba 9abd c73c b03b c27f 183c
00000340: d21e d9bd 0c3a 7abe 0060 0bbd 78b6 4a3d
00000350: f148 9abd f278 11bf 8297 97bd c8bd 163d
00000360: 12e0 a3bd 8acf 80bd 73c5 373b 4a42 d83c
00000370: fda7 01bf 7f76 c9be efd7 ca3a d654 3e3d
00000380: 38b8 a7bd 3be1 e4bc 6278 9cb8 7e43 7c3c
00000390: fb23 c4bc e836 e8bd 1148 cf3c 9ddf 05bb
000003a0: cfa1 65bd 86ca adbd 5912 96bc 1d4b 4eb9
000003b0: 708f fb3e fc5b 863e 4daa 843b 3509 873c
000003c0: e029 7d3d 53c8 eebc f1fc 65bd e91b f0bd
000003d0: 294b 9cbe 210b debd ceaa 923c d662 14be
000003e0: 8a95 213e 8ae2 43bd 47ff 3f3d fc90 0bbd
000003f0: f983 96bd 9421 c33d 5760 bb3c 5559 61bd

fc1.bias f4 [128]
-0.007050212 -0.07317792 -0.031797472 -0.09386891 0.06324376 0.10457727 0.022944646 -0.14753291
0.19997525 -0.008657602 -0.02513732 -0.01880468 0.015166833 -0.13153347 0.09218336 -0.0032536315
-0.0050832783 -0.094318196 0.030432403 -0.014790631 0.010284887 -0.09631681 0.010263465 -0.01033333
0.02886348 0.001782501 0.013416239 0.009513446 -0.021804444 -0.057414085 0.027408084 -0.015050351
-0.060612697 0.08104913 0.008804722 -0.15352163 -0.039177146 -0.009106115 -0.033929396 0.12388709
0.029467255 -0.09356348 -0.02491815 -0.07694892 -0.013423116 -0.04201249 -0.11903627 -0.044776082
0.12029281 -0.009794358 -0.086028926 -0.040397603 -0.002987478 -0.0020628336 -0.022081014 0.017060567
-0.031066027 -0.036625184 0.19724368 0.008288746 -0.1134535 0.057934653 -0.013239605 -0.09305753
0.011157406 -0.051302876 -0.06605669 -0.09247287 -0.033062104 -0.022717576 0.10448057 0.24065752
-0.037948325 0.15173201 0.0041783405 0.027480414 -0.089935675 -0.011092477 -0.0056538447 -0.009583616
0.027300531 -0.08066225 -0.084923744 -0.026003812 -0.030259756 0.23542209 0.08718373 -0.075851806
-0.020165425 -0.065081015 -0.17179456 0.028220044 -0.09637381 -0.02927454 -0.03196932 -0.060027413
-0.06751938 0.018281475 0.005398839 -0.032101445 0.0835932 -0.03611089 -0.097773485 0.122278236
-0.0050709923 0.19200234 0.04796049 0.09750032 0.0024605272 -0.004632105 -0.12724039 0.016730107
0.14111829 0.09933264 -0.09557304 0.058863413 -0.010662436 -0.12501581 -0.034576017 0.10744545
-0.05749688 0.12887438 -0.030883748 -0.111269295 -0.03724852 -0.035260208 -0.02888729 -0.06687227
00000000: 7705 e7bb 4ede 95bd 113e 02bd 583e c0bd
00000010: f285 813d 9c2c d63d 69f6 bb3c de12 17be
00000020: 50c6 4c3e 9dd8 0dbc c8ec cdbc 460c 9abc
00000030: 4f7e 783c b6b0 06be a1ca bc3d e13a 55bb
00000040: a191 a6bb e629 c1bd 604d f93c 6754 72bc
00000050: f181 283c bf41 c5bd 1828 283c 214d 29bc
00000060: 1b73 ec3c cfa2 e93a c9cf 5b3c 49de 1b3c
00000070: 3c9f b2bc 082b 6bbd eb86 e03c bf95 76bc
00000080: 0545 78bd 16fd a53d ae41 103c c634 1dbe
00000090: 3778 20bd d131 15bc 8df9 0abd 84b8 fd3d
000000a0: 5065 f13c 369e bfbd 2621 ccbc 6597 9dbd
000000b0: a1ec 5bbc 4a15 2cbd 4ac9 f3bd 2067 37bd
000000c0: 145c f63d 8478 20bc ef2f b0bd f577 25bd
000000d0: 90c9 43bb 9b30 07bb 3ee3 b4bc 9ac2 8b3c
000000e0: 2e7e febc 4a04 16bd 3ffa 493e 85cd 073c
000000f0: 4f5a e8bd e34c 6d3d eeea 58bc f294 bebd
00000100: 8dcd 363c f722 52bd bb48 87bd 6b62 bdbd
00000110: 216c 07bd 361a babc e9f9 d53d ed6e 763e
00000120: b46f 1bbd a35f 1b3e 76ea 883b 9b1e e13c
00000130: 3230 b8bd 38bd 35bc e343 b9bb 9904 1dbc
00000140: 5da5 df3c 4032 a5bd 80ec adbd f205 d5bc
00000150: 4fe3 f7bc 7d12 713e 628d b23d 3158 9bbd
00000160: f631 a5bc 3249 85bd eaea 2fbe b92d e73c
00000170: a25f c5bd 29d1 efbc 43f2 02bd 4edf 75bd
00000180: 9a47 8abd 08c3 953c bee8 b03b ce7c 03bd
00000190: e932 ab3d 03e9 13bd 773d c8bd 036d fa3d
000001a0: 912a a6bb 439c 443e 3872 443d 3fae c73d
000001b0: cc40 213b eac8 97bb 4e4b 02be 940d 893c
000001c0: 5081 103e e96e cb3d ccbb c3bd c31a 713d
000001d0: 7fb1 2ebc 2504 00be 959f 0dbd 5c0c dc3d
000001e0: d981 6bbd a5f7 033e eaff fcbc 28e1 e3bd
000001f0: e791 18bd 026d 10bd 0aa5 ecbc 54f4 88bd

fc2.weight f4 [64, 128]
-0.035308696 -0.040739264 -0.1288154 0.11186773 -0.069733806 -0.046186145 0.017014919 0.045888487
0.012096898 -0.035335522 -0.064350195 -0.021313872 -0.013729451 0.025641294 0.02420631 0.01449816
0.04137332 -0.00770673 0.029619701 0.08595131 0.049350176 -0.1344228 0.034984108 0.10383012
-0.16713369 0.062209107 -0.0072078933 -0.00690346 0.045291945 -0.10293733 -0.07494477 0.022704313
0.055262305 0.117655955 0.0053712535 0.010736104 0.19992805 -0.02443239 -0.09648171 0.025082394
-0.09764446 -0.2530438 -0.08144493 -0.0036859317 0.2573576 0.10318875 -0.02824961 -0.03873298
-0.06505163 0.033210207 0.07831683 0.11663753 0.041771457 0.18735586 -0.058150757 0.13223182
0.09078597 -0.041277364 -0.031515546 -0.06146664 0.119837746 -0.0663544 -0.111384325 0.1453072
0.06559036 -0.19253935 0.13820471 0.0016672604 0.04854385 0.022579558 0.08450639 -0.008034307
-0.021822743 -0.14936379 -0.060649924 -0.025451899 0.09532845 -0.0056744204 -0.046386708 0.09559389
-0.040505417 -0.049384657 0.08526197 0.07146948 0.06969715 -0.046589416 -0.07593743 -0.012629048
-0.020932209 0.1021786 -0.05245694 0.036954116 -0.044993185 0.09706751 0.05286185 0.052193355
0.031792793 0.05420031 -0.0817349 -0.14332111 -0.008012422 0.18181321 -0.026892778 -0.033024173
-0.12302638 -0.04741188 -0.10078821 -0.15397508 -0.06751649 -0.046787716 0.08008717 -0.09828223
0.2402914 0.0035636765 0.112447575 -0.14639877 -0.02034303 0.09565968 0.012989553 0.04052999
-0.021206623 -0.05677158 -0.07569037 0.013142306 -0.030194266 0.1416702 0.05169551 -0.1534945
-0.11135744 -0.013544573 0.028044276 0.17467785 0.016136128 -0.058553576 0.06362971 -0.0170506
0.051269278 -0.091973886 0.065587744 0.094157405 0.06153906 0.074923195 0.049709328 -0.06997857
-0.15476587 0.056682326 -0.06881974 -0.02988212 -0.0024745022 -0.022242013 0.06299539 -0.052953128
-0.19256704 -0.046731934 -0.15703447 -0.09668115 -0.08063571 -0.097241655 -0.07774123 0.014462824
0.10556022 -0.0135741215 -0.13890505 0.06462123 0.017395647 0.068743385 0.073401 0.14127018
0.015325286 -0.105051346 -0.10410877 -0.08352164 -0.036704548 0.044302102 0.08487321 0.1042775
0.0013708221 -0.09541623 -0.012134663 -0.027877066 0.04915796 -0.047590457 0.026684884 -0.11088233
0.023738546 -0.084306486 0.09235407 -0.05085777 -0.044767655 0.1159256 -0.08052673 -0.0822166
-0.13071723 0.12642488 -0.037815742 -0.06904447 -0.03212899 0.0018907933 -0.01051804 -0.16183697
-0.038649697 -0.06730116 0.024627855 -0.16661754 -0.08101137 0.0040021255 0.028884526 -0.0064467634
0.11433684 -0.109622955 0.009624173 -0.010774083 0.0009174287 -0.12198671 -0.118852474 -0.047163047
-0.031931106 0.02698356 0.039984684 -0.024498465 0.2094056 0.05714035 -0.00627572 -0.013488372
-0.021802207 -0.13125442 0.0093192365 0.17582712 0.16795994 -0.04730482 0.08968317 0.08614947
-0.18072824 -0.15488541 0.04913235 -0.059087455 -0.04106317 -0.005905946 -0.037559904 -0.10018721
0.049195953 -0.08227371 -0.062269486 -0.17918271 -0.13766773 -0.026261007 -0.058959514 0.027574858
0.06251879 -0.12336168 0.09447652 0.086677715 -0.023738358 -0.06317402 0.075254805 -0.118711606
00000000: da9f 10bd 37de 26bd 2fe8 03be e91a e53d
00000010: 99d0 8ebd af2d 3dbd df62 8b3c 91f5 3b3d
00000020: 1132 463c fbbb 10bd 09ca 83bd 6e9a aebc
00000030: 7ef1 60bc b10d d23c 504c c63c b189 6d3c
00000040: 1277 293d bd88 fcbb 04a5 f23c 3e07 b03d
00000050: 6923 4a3d 21a6 09be 7f4b 0f3d e3a4 d43d
00000060: 1825 2bbe face 7e3d 3130 ecbb 6b36 e2bb
00000070: 0c84 393d cfd0 d2bd a57c 99bd 65fe b93c
00000080: ba5a 623d 9bf5 f03d 5701 b03b 7ce6 2f3c
00000090: f0b9 4c3e 7026 c8bc 3498 c5bd 9879 cd3c
000000a0: d2f9 c7bd f58e 81be 99cc a6bd ac8f 71bb
000000b0: 60c4 833e a054 d33d ba6b e7bc 79a6 1ebd
000000c0: ca39 85bd 6d07 083d 9364 a03d a8df ee3d
000000d0: 8c18 2b3d 37da 3f3e 7d2f 6ebd c767 073e
000000e0: ffed b93d 7412 29bd 7216 01bd 72c4 7bbd
000000f0: 7e6d f53d d1e4 87bd 771d e4bd 69cb 143e
00000100: 3d54 863d 0929 45be 8985 0d3e fa87 da3a
00000110: ebd5 463d c4f8 b83c b011 ad3d 53a2 03bc
00000120: 9cc5 b2bc d2f2 18be 0e6c 78bd 8080 d0bc
00000130: 903b c33d 7df0 b9bb fdff 3dbd bbc6 c33d
00000140: 02e9 25bd 9147 4abd d49d ae3d 975e 923d
00000150: 61bd 8e3d 8bd4 3ebd 1585 9bbd 11ea 4ebc
00000160: 067a abbc 0443 d13d 17dd 56bd 335d 173d
00000170: c64a 38bd 55cb c63d ab85 583d b3c8 553d
00000180: 2939 023d 2501 5e3d a164 a7bd c5c2 12be
00000190: 8946 03bc 3e2d 3a3e 3e4e dcbc 5b44 07bd
000001a0: 41f5 fbbd f632 42bd 0d6a cebd a5ab 1dbe
000001b0: 1646 8abd 7aa4 3fbd be04 a43d 3248 c9bd
000001c0: f30e 763e 928c 693b ea4a e63d 8fe9 15be
000001d0: 6da6 a6bc 39e9 c33d 22d2 543c c602 263d
000001e0: 83b9 adbc 5189 68bd 8d03 9bbd d452 573c
000001f0: f759 f7bc fe11 113e acbe 533d aa2d 1dbe
00000200: 5f0f e4bd 0fea 5dbc 1cbd e53c c0de 323e
00000210: ea2f 843c e0d5 6fbd 4b50 823d b3ad 8bbc
00000220: bcff 513d ce5c bcbd de52 863d 99d5 c03d
00000230: 6210 7c3d 5571 993d 029c 4b3d ed50 8fbd
00000240: f27a 1ebe ba2b 683d 5df1 8cbd 59cb f4bc
00000250: 422b 22bb e234 b6bc ba03 813d 61e5 58bd
00000260: 4b30 45be fc69 3fbd a5cd 20be c400 c6bd
00000270: 5624 a5bd a226 c7bd cb36 9fbd 7bf5 6c3c
00000280: f52f d83d fe65 5ebc 203d 0ebe 2358 843d
00000290: 5181 8e3c 55c9 8c3d 4353 963d 21a9 103e
000002a0: e916 7b3c 2925 d7bd fb36 d5bd 650d abbd
000002b0: 8257 16bd 1f76 353d 01d2 ad3d 718f d53d
000002c0: 28ad b33a 9669 c3bd 77d0 46bc 725e e4bc
000002d0: db59 493d 36ee 42bd 429a da3c 4616 e3bd
000002e0: 5777 c23c e1a8 acbd 2124 bd3d 3d50 50bd
000002f0: 4a5e 37bd 676a ed3d 33eb a4bd 2d61 a8bd
00000300: bdda 05be 8675 013e aee4 1abd 3067 8dbd
00000310: b099 03bd 7fd4 f73a db53 2cbc 97b8 25be
00000320: 254f 1ebd 31d5 89bd 5bc0 c93c ca9d 2abe
00000330: 4ae9 a5bd 4324 833b 3e9f ec3c 5f3f d3bb
00000340: 6f29 ea3d 0082 e0bd b5ae 1d3c c885 30bc
00000350: 997f 703a 2bd4 f9bd ed68 f3bd 0a2e 41bd
00000360: 31ca 02bd a00c dd3c fbc6 233d 01b1 c8bc
00000370: 6c6e 563e 000c 6a3d 8ea4 cdbb 55fe 5cbc
00000380: 8b9a b2bc 8f67 06be b6af 183c 060c 343e
00000390: b1fd 2b3e b3c2 41bd cfab b73d 226f b03d
000003a0: d310 39be 489a 1ebe 013f 493d b005 72bd
000003b0: db31 28bd aa86 c1bb 6ad8 19bd f42e cdbd
000003c0: b281 493d 1e7f a8bd 4a0e 7fbd ac7b 37be
000003d0: c5f8 0cbe 5321 d7bc 887f 71bd abe4 e13c
000003e0: da09 803d 0ca5 fcbd e87c c13d 1684 b13d
000003f0: f276 c2bc 6161 81bd 311f 9a3d 121f f3bd

fc2.bias f4 [64]
0.03820209 -0.045860317 -0.01137436 0.030682895 -0.05125998 -0.17579079 0.08794741 0.026422128
-0.087904766 -0.011949001 -0.17664045 -0.03068122 -0.0047613448 0.037632205 -0.05385152 0.06504015
0.048748065 -0.0032290271 -0.011431538 -0.06730406 -0.027529873 0.0102239745 0.19873936 0.05122938
-0.029636133 0.10639833 0.076835565 -0.10794221 0.124647826 -0.017130187 -0.0075089643 0.008295872
0.040817585 -0.11455878 0.00065106514 -0.011403043 -0.2947997 -0.10050852 -0.04593978 0.20023723
-0.0048396573 0.07676761 -0.0363865 0.055395868 0.005939762 -0.27592954 -0.04389867 -0.09778464
-0.044847075 -0.026933422 0.014846512 -0.016315093 -0.07957311 0.030349545 -0.037134767 -0.117557086
-0.1261503 -0.014860643 -0.04418962 -0.108185746 -0.119765855 0.07458244 0.02714859 -0.15135357
00000000: cb79 1c3d 07d8 3bbd 865b 3abc b25a fb3c
00000010: fcf5 51bd 8002 34be c61d b43d 3873 d83c
00000020: 6a07 b4bd bec5 43bc 3ce1 34be 2f57 fbbc
00000030: 0e05 9cbb 3a24 1a3d 6993 5cbd c533 853d
00000040: 0dac 473d 169e 53bb 584b 3bbc b6d6 89bd
00000050: 5486 e1bc 7582 273c 5582 4b3e e6d5 513d
00000060: 7ac7 f2bc 5ee7 d93d f75b 9d3d ce10 ddbd
00000070: 5c47 ff3d 9b54 8cbc c20d f6bb 69eb 073c
00000080: 5730 273d cb9d eabd 3eac 2a3a d4d3 3abc
00000090: fcef 96be 69d7 cdbd 5a2b 3cbd fd0a 4d3e
000000a0: fd95 9ebb 5638 9d3d 030a 15bd c7e6 623d
000000b0: 56a2 c23b a346 8dbe 17cf 33bd 5043 c8bd
000000c0: 91b1 37bd 7ba3 dcbc c93e 733c 3ba7 85bc
000000d0: 3af7 a2bd 9c9f f83c a01a 18bd c5c1 f0bd
000000e0: 8b2d 01be 0e7a 73bc 2d00 35bd 7d90 ddbd
000000f0: cd47 f5bd aebe 983d b866 de3c 6efc 1abe

fc3.weight f4 [32, 64]
0.054659598 -0.02908946 -0.07358393 -0.034482002 -0.037179563 -0.09411136 0.14103946 0.1371064
0.029625954 -0.27682003 -0.03741372 -0.028134644 -0.0028712952 -0.17486855 0.1904097 0.1475736
-0.013091718 0.049919862 -0.26235536 0.019191876 0.07667388 -0.32098275 0.29955718 -0.20100139
-0.19058914 -0.051458433 -0.12066785 -0.10496709 0.08668232 0.0061222794 0.038797364 0.019466761
-0.13521042 0.023775382 0.15844835 0.087670356 0.09330379 0.081140436 -0.14918771 0.16154428
0.023340894 -0.10317349 -0.1444966 -0.17527519 -0.09541427 -0.23276894 -0.026296554 -0.015731214
-0.2002526 0.061108742 -0.15975499 -0.015143714 0.044761527 0.02381546 -0.06024823 0.011022113
0.025255715 -0.035827477 0.05343378 0.08481117 -0.0034981535 -0.061556667 -0.0013586174 -0.0039111353
0.14413229 -0.17505194 -0.11826624 0.23720478 0.028450884 0.18440193 0.09863731 -0.09312401
0.24487783 -0.15633664 -0.06993871 -0.07903664 -0.07704077 -0.028015219 -0.059368458 -0.14626758
-0.077935405 0.11785852 0.13751574 -0.028476972 -0.017145485 0.036422826 -0.21816714 0.069312915
0.10873831 0.10797903 -0.05172757 -0.014553798 -0.08561178 -0.12771341 0.01074417 -0.038244776
0.024474291 0.08155543 0.010464214 -0.09184599 0.17345986 0.24341959 0.03804552 -0.072370715
-0.12619364 -0.19828485 0.13235 -0.07033057 -0.03270715 -0.100119404 0.15484035 0.17841406
-0.14226651 0.03519177 -0.095879324 0.11103194 -0.022514312 -0.13708413 -0.24423577 0.028920509
0.12204339 0.06383117 -0.039369978 -0.030881021 0.09973086 -0.09740335 0.18162708 0.24364907
-0.035917256 -0.109308556 -0.09179531 0.07591105 -0.022870766 0.1278578 0.1284805 0.13875166
-0.16068718 0.011890808 0.09237244 -0.37515685 0.0357365 -0.039643 -0.23631693 -0.52960175
0.25603557 0.20503855 -0.1660095 -0.1141808 -0.21343236 0.020058949 0.08155059 -0.033701804
-0.010449605 0.10668554 -0.04657636 -0.35775486 0.07220451 0.2148685 0.09102239 -0.100132965
-0.024171349 -0.026583552 -0.38286698 0.02610419 -0.17200024 -0.3452122 -0.3403939 -0.19868912
-0.107524365 0.050186604 0.07948364 0.14403431 -0.06900848 0.05797742 0.17386344 0.17621464
0.13809508 0.023401823 0.15774281 0.1164549 -0.08954495 -0.25157112 -0.13514136 0.13273223
0.25892434 -0.09280936 0.10973768 0.05195261 0.008701738 -0.061292943 -0.046828747 -0.40287343
0.14993091 -0.06821956 -0.00861294 -0.15827408 -0.047588386 0.058480315 -0.21789591 0.04741381
-0.094017364 0.39032298 -0.07744019 0.016641274 0.04815105 -0.3677122 0.04440772 0.04099166
-0.26251975 0.043588962 -0.059533108 0.21373665 -0.02992979 -0.25838882 0.06126607 0.46137393
-0.29212442 0.55046 0.11596415 -0.20106108 0.36913577 0.14957225 0.22606559 0.35500145
-0.10898527 0.053039722 0.02555553 -0.19439761 0.1930337 -0.0005469934 0.027080078 -0.12401939
0.081393525 0.2266136 0.08627317 0.35235164 -0.24788459 -0.118941545 0.18281516 0.028551582
-0.322985 0.24440356 0.0903751 -0.1226772 0.080764696 0.3501253 0.1135672 -0.15848657
0.20037346 0.015583201 0.15507698 -0.21755247 -0.040671676 0.24012688 0.14858894 -0.03966657
00000000: bee2 5f3d 054d eebc 2cb3 96bd 003d 0dbd
00000010: 9949 18bd 75bd c0bd a66c 103e 9f65 0c3e
00000020: 21b2 f23c 5bbb 8dbe 213f 19bd a07a e6bc
00000030: 572c 3cbb be10 33be c3fa 423e 891d 173e
00000040: a57e 56bc c578 4c3d 7153 86be 4838 9d3c
00000050: 3207 9d3d da57 a4be 8f5f 993e 4fd3 4dbe
00000060: cd29 43be 14c6 52bd b520 f7bd fcf8 d6bd
00000070: 8086 b13d 679d c83b fce9 1e3d c278 9f3c
00000080: 9a74 0abe 97c4 c23c 4940 223e 848c b33d
00000090: 0f16 bf3d f52c a63d aac4 18be dd6b 253e
000000a0: 6735 bf3c 9f4c d3bd ebf6 13be 577b 33be
000000b0: 8f68 c3bd fb5a 6ebe df6b d7bc bfde 80bc
000000c0: 040f 4dbe 294d 7a3d d096 23be 571d 78bc
000000d0: dd57 373d a418 c33c d9c6 76bd 1896 343c
000000e0: 13e5 ce3c d5bf 12bd 61dd 5a3d 7bb1 ad3d
000000f0: 4741 65bb d822 7cbd a313 b2ba fb28 80bb
00000100: 6a97 133e d140 33be 9235 f2bd cfe5 723e
00000110: d411 e93c dcd3 3c3e 5c02 ca3d cdb7 bebd
00000120: 41c1 7a3e b616 20be 073c 8fbd f6dd a1bd
00000130: 8dc7 9dbd 2c80 e5bc 572c 73bd 2bc7 15be
00000140: 999c 9fbd cf5f f13d edd0 0c3e 8a48 e9bc
00000150: b074 8cbc 1a30 153d 3567 5fbe eef3 8d3d
00000160: 31b2 de3d 1c24 dd3d 4ae0 53bd 0e73 6ebc
00000170: 3b55 afbd 4ec7 02be 5108 303c 8ea6 1cbd
00000180: 4f7e c83c 8906 a73d 1872 2b3c c019 bcbd
00000190: 769f 313e fc42 793e 9fd5 1b3d 1937 94bd
000001a0: e838 01be 2f0b 4bbe c286 073e 7909 90bd
000001b0: eff7 05bd 670b cdbd 788e 1e3e 2db2 363e
000001c0: 50ae 11be 3f25 103d 615c c4bd b764 e33d
000001d0: ef6f b8bc c85f 0cbe f118 7abe b4ea ec3c
000001e0: e3f1 f93d ebb9 823d 6a42 21bd 32fa fcbc
000001f0: b13f cc3d 687b c7bd 73fc 393e 247f 793e
00000200: f91d 13bd 2add dfbd 2eff bbbd 4177 9b3d
00000210: 795b bbbc 28ed 023e 6490 033e ea14 0e3e
00000220: 2e8b 24be aad1 423c c32d bd3d 8f14 c0be
00000230: 7060 123d b360 22bd 11fd 71be fb93 07bf
00000240: 1817 833e a0f5 513e 65fe 29be a0d7 e9bd
00000250: 038e 5abe aa52 a43c ff03 a73d e70a 0abd
00000260: d234 2bbc f37d da3d dac6 3ebd a52b b7be
00000270: f5df 933d 7d06 5c3e f269 ba3d 8312 cdbd
00000280: fe02 c6bc c0c5 d9bc 2407 c4be 74d8 d53c
00000290: d520 30be a7bf b0be 1c48 aebe 2975 4bbe
000002a0: bc35 dcbd 7890 4d3d 52c8 a23d bb7d 133e
000002b0: 5154 8dbd bb79 6d3d 4209 323e 9c71 343e
000002c0: cc68 0d3e 2eb5 bf3c 5587 213e e87f ee3d
000002d0: 5863 b7bd eecd 80be 7f62 0abe f5ea 073e
000002e0: bb91 843e d512 bebd 26be e03d 43cc 543d
000002f0: bc91 0e3c 4f0e 7bbd 80cf 3fbd 6d45 cebe
00000300: 7d87 193e b2b6 8bbd 4a1d 0dbc 9a12 22be
00000310: 0aec 42bd 0e89 6f3d 1b20 5fbe fc34 423d
00000320: 2d8c c0bd 6ad8 c73e f698 9ebd 4853 883c
00000330: 093a 453d c644 bcbe dfe4 353d dfe6 273d
00000340: fd68 86be 578a 323d fdd8 73bd c8dd 5a3e
00000350: 522f f5bc 8a4b 84be 21f2 7a3d 3439 ec3e
00000360: 5591 95be f2ea 0c3f 9d7e ed3d f5e2 4dbe
00000370: 5dff bc3e 7829 193e bd7d 673e c0c2 b53e
00000380: ab33 dfbd 2e40 593d d559 d13c 2b10 47be
00000390: a0aa 453e 1b64 0fba 0ad7 dd3c e1fd fdbd
000003a0: a6b1 a63d 650d 683e fdaf b03d 6f67 b43e
000003b0: 75d5 7dbe a097 f3bd e633 3b3e 02e5 e93c
000003c0: 4a5e a5be ed44 7a3e 9516 b93d 2f3e fbbd
000003d0: f667 a53d a043 b33e ec95 e83d 4e4a 22be
000003e0: b32e 4d3e af50 7f3c 80cc 1e3e 13c6 5ebe
000003f0: 5897 26bd d2e3 753e b327 183e 6a79 22bd

fc3.bias f4 [32]
-0.024545126 -0.2758143 0.17242117 0.04106966 0.025788069 0.031225305 0.17250745 0.035259042
-0.051170927 0.1523271 -0.07867318 0.008630733 -0.07946911 0.28903395 0.029793425 -0.08423803
0.09966966 0.03179512 -0.09676769 0.07159684 -0.10720892 -0.18014665 0.24555486 -0.061178535
0.0090879975 0.12351933 -0.122065924 0.08525366 0.04049031 0.010749779 0.015112184 0.18659449
00000000: dc12 c9bc 8837 8dbe 2d8f 303e a938 283d
00000010: 8041 d33c 36cc ff3c cba5 303e c96b 103d
00000020: 9b98 51bd a3fb 1b3e 671f a1bd eb67 0d3c
00000030: b3c0 a2bd 42fc 933e 5711 f43c fd84 acbd
00000040: 9b1f cc3d 9a3b 023d 232e c6bd 5da1 923d
00000050: 5a90 dbbd 5d78 38be bc72 7b3e 5896 7abd
00000060: d3e5 143c b4f7 fc3d b3fd f9bd 7999 ae3d
00000070: 2bd9 253d d71f 303c 1899 773c a012 3f3e

fc4.weight f4 [2, 32]
0.2691468 -0.3281874 -0.72377074 -0.09402848 -0.4318798 -0.19575529 -0.023435015 0.32403332
0.5171233 -2.3730018 0.08193148 0.3481209 0.3608092 -0.91763574 0.65809464 -0.28061306
-0.068214305 -0.41216165 0.5352088 -1.5291833 0.55941856 0.38150695 -1.6974332 1.0016131
0.5756442 -0.18878895 0.115485564 -0.64845765 -0.12528652 -1.6222838 0.051553097 -0.83629465
-0.7006969 0.43236297 0.40126172 -1.4719974 0.025498673 -1.1209024 -0.8237549 -0.57830244
-1.2716324 -0.08802395 0.74837357 -1.0436022 0.55958563 -0.062813714 -0.69145125 0.3555479
-1.5022464 0.024363719 -0.30360538 0.28912935 -0.29659528 -0.62940395 -0.029269353 -0.24139059
-0.29352412 0.6822506 0.6293769 0.4282474 0.9363882 0.15009397 0.6862663 0.49276426
00000000: 9ccd 893e 2e08 a8be 0a49 39bf 0192 c0bd
00000010: 591f ddbe 1374 48be cafa bfbc b2e7 a53e
00000020: 3162 043f 43df 17c0 b1cb a73d e73c b23e
00000030: fcbb b83e 2dea 6abf e478 283f 84ac 8fbe
00000040: f1b3 8bbd da06 d3be 7203 093f 47bc c3bf
00000050: 0e36 0f3f e154 c33e 7e45 d9bf dc34 803f
00000060: 6b5d 133f e451 41be b283 ec3d 5201 26bf
00000070: 1c4b 00be ffa6 cfbf 5729 533d 6817 56bf
00000080: df60 33bf ae5e dd3e 2d72 cd3e 696a bcbf
00000090: 98e2 d03c bb79 8fbf 9ae1 52bf a10b 14bf
000000a0: dac4 a2bf e745 b4bd 6995 3f3f c294 85bf
000000b0: 0141 0f3f 7aa4 80bd f302 31bf 600a b63e
000000c0: 9c49 c0bf 6c96 c73c 2a72 9bbe c308 943e
000000d0: 56db 97be 9e20 21bf 48c6 efbc 182f 77be
000000e0: cb48 96be faa7 2e3f d81e 213f 3e43 db3e
000000f0: 23b7 6f3f 3cb2 193e 26af 2f3f 994b fc3e

fc4.bias f4 [2]
-0.15525585 -0.039008062
00000000: 64fb 1ebe ebc6 1fbd
