best_weights_0.pth (torch_old, 55713 bytes, 8 tensors)

fc1.weight f4 [128, 24]
000000 61 2b 35 3e 2c 1d f2 bd 34 23 81 3d 31 4b 0f be
       0.17692329 -0.1182197 0.063055426 -0.13993527
000010 a6 ca 66 3d 5b 90 c7 3c f9 5a ad 3d c0 33 0f be
       0.056345604 0.024360826 0.08464617 -0.13984585
000020 82 5c 26 3e 30 a5 15 be c9 0e 4b 3c 8e 43 1f be
       0.16246226 -0.14613795 0.012393662 -0.15553114
000030 be 13 e4 3d f9 f4 b1 bc c7 44 5f 3b 95 35 1f be
       0.11136578 -0.021723257 0.0034068094 -0.15547784
000040 52 54 28 3e d2 31 2f be 16 97 02 bd 58 71 7f bd
       0.16438416 -0.17108849 -0.031882368 -0.062363952
000050 2a e2 08 3e c7 93 4b be f6 57 89 bc 0a 55 80 bd
       0.13367525 -0.19880591 -0.016765576 -0.0626622
000060 f2 71 a6 3d 8c df eb 3d 5a 62 4e bc 17 5d 0c bc
       0.08127202 0.115172476 -0.012596691 -0.008567116
000070 f6 9f 8c 3e c6 76 53 be 2a 5d 6a 3c ce 26 13 bc
       0.2746579 -0.20650777 0.014304439 -0.00898142
000080 0e 31 6c 3d 95 f8 f9 3d 2d 01 63 bc 84 11 0d bc
       0.05766397 0.122056164 -0.013855261 -0.008610133
000090 a7 29 f7 3d eb d3 71 be 97 33 b8 bc 91 9f 18 bc
       0.120684914 -0.23615997 -0.022485537 -0.009315387
0000a0 51 ec f5 3c 4d 3c ed 3d 0f 16 f0 3b 0d dc 51 bc
       0.030019911 0.11583767 0.0073268483 -0.012808812
0000b0 f8 76 6e 3d ca ec 1b be 59 32 b2 bc 9e c3 51 bc
       0.058218926 -0.15227047 -0.021752523 -0.012802986
0000c0 28 ca c4 bc 60 3d 18 3e 88 8f 9f bc bc 71 64 3c
       -0.024022177 0.14867163 -0.01947762 0.013943132
0000d0 1f 8b a9 be 9c 9e bb be 2c 59 a3 3c ea 2c fa 3b
       -0.33113953 -0.36644447 0.019939981 0.0076347487
0000e0 08 e0 9d 3c f0 8d 30 3e e2 e2 ae bc 85 dc 4d 3d
       0.019271865 0.17241645 -0.02134842 0.050259132
0000f0 6d 00 12 be db 4a 04 bf d6 e9 3e 3c 4b 02 60 3d
       -0.14257975 -0.5167672 0.0116524305 0.054689687
000100 b1 65 7d 3d 40 54 29 3e 8d 9f 18 3d 19 8a a6 bc
       0.06186456 0.16536045 0.037261534 -0.020329522
000110 28 92 88 bc 53 2e c7 be b7 c0 ce 3c a3 b3 2a bc
       -0.016671255 -0.3890253 0.025238378 -0.010418805
000120 2f 64 0e 3e 99 98 6d bb ad ad f6 bc 76 c7 ec 3b
       0.13905405 -0.0036254285 -0.030112112 0.007225926
000130 a4 81 0f bd a7 c0 31 bd 6b da 8b bd 7d bf eb 3b
       -0.035035744 -0.04339662 -0.06828769 0.007194458
000140 29 05 01 3e 8f a3 98 3a 8b ac 24 3c 98 c7 09 3c
       0.12599625 0.0011645424 0.010050903 0.008409403
000150 7d 35 1a bd 79 7c 15 bd cf 89 e2 3c ae fd 09 3c
       -0.037648667 -0.03649566 0.027653603 0.008422298
000160 8a 9d 1c 3e ca 21 bc 3b 57 a7 44 bd f6 95 2d 3d
       0.15294471 0.0057413327 -0.04801115 0.042379342
000170 43 01 08 bd 4a 74 ed bc 1c 54 1a bd 5d ad 2d 3d
       -0.03320433 -0.028986115 -0.03767787 0.04240166
000180 58 8d 99 3c 95 c7 26 3e 3c 68 84 3c 61 9b b3 3d
       0.018744156 0.16287072 0.016162984 0.087698705
000190 26 47 c8 3e 5f 2c 1b 3e 3c b8 97 3c 23 78 bf 3d
       0.39116782 0.15153645 0.018520467 0.09349086
0001a0 ec 29 1f bd 7e 36 25 3e 3b 0f 8f bd f2 2e 60 bd
       -0.03885834 0.16134068 -0.06985327 -0.05473227
0001b0 63 43 9d 3d 45 70 92 3d 4a 2b 95 bd 73 5a 82 bd
       0.076788686 0.0715032 -0.07283647 -0.06364908
0001c0 ef a7 5a 3d 92 d3 fe 3d 8d 38 6d bd ec fd 4c bd
       0.05338281 0.124426976 -0.05791526 -0.050046846
0001d0 20 25 1c be bf 6e 1c be cf 9d 0e bd 77 83 8d bd
       -0.15248537 -0.15276621 -0.034818467 -0.069098406
0001e0 03 d9 2d 3e bb 0f 06 3d bf 68 0e bd 97 fd ea 3c
       0.16977315 0.032729845 -0.034767862 0.028685374
0001f0 bf f3 b6 3c b0 13 a3 bd d2 87 41 bc da c1 4b 3d
       0.022333024 -0.079627395 -0.011812167 0.049745418
000200 ab e4 b7 3d 5e 96 2e 3c b8 1e c1 bb 65 c4 f1 3d
       0.08979162 0.0106559675 -0.0058935545 0.118050374
000210 9d 3d c6 bd f5 61 33 3e 5e 43 dd bc 0a a2 fb 3d
       -0.096797206 0.17517836 -0.027009662 0.12286766
000220 6f ad 81 3d 18 56 d5 ba c5 21 a5 bc 0a 46 3d 3e
       0.06331908 -0.0016276268 -0.020157704 0.18483749
000230 ec bc 2e be 4e f6 ac 3e 36 2f 12 3d 71 8e 3c 3e
       -0.17064255 0.33781666 0.035689555 0.18413712
000240 b2 8c d4 3d ff 0d b9 3d 26 a5 ba 3c fd 60 a3 3d
       0.10378398 0.09035873 0.022783827 0.079774834
000250 81 8c aa 3e 3d c6 f2 3c f6 4a e4 bc a1 e7 a0 3d
       0.3331032 0.029635543 -0.027867775 0.0785668
000260 5f eb da 3d 67 eb bf 3d bd c6 11 3b ff 0e 60 3c
       0.10689425 0.09371071 0.0022243701 0.01367545
000270 10 33 26 3e 3e 6c be 3c d0 f3 d6 bb 12 f2 5a 3c
       0.16230416 0.023244973 -0.0065598264 0.013363378
000280 0c e1 10 3e 74 8e bf 3d c8 1c a9 bc bc 01 9f bc
       0.14148349 0.09353343 -0.020643607 -0.019410007
000290 15 91 06 3d cf 0f de bd a8 7d 6e 3c c3 35 9d bc
       0.032853205 -0.10842859 0.014556326 -0.019190675
0002a0 e8 5a a3 3d ed fc 81 3d ec d2 f4 bb 3f 8a 59 bd
       0.07976323 0.0634707 -0.007471433 -0.053110357
0002b0 30 32 a1 3b 79 dc e7 3d 26 0c ed 3b be 61 55 bd
       0.004919313 0.11321349 0.007234114 -0.052095167
0002c0 94 af c7 3d e3 94 70 3d 77 1b 99 3c 5d 8f 05 bd
       0.09750286 0.05873574 0.018689854 -0.032607425
0002d0 4f 44 ff 3b b6 72 ef 3d 56 b7 db bb 78 38 06 bd
       0.0077901254 0.11691801 -0.006705205 -0.032768697
0002e0 d5 35 c5 3d 0c a3 8a 3d d0 fc 14 3c aa 8e 38 be
       0.09629408 0.0676938 0.009093478 -0.18023172
0002f0 e3 4e d5 3d ba 60 0b 3d 63 89 06 3d 74 21 3c be
       0.10415437 0.034027793 0.032845866 -0.18372136
000300 83 ee 21 3e 5e 09 cb bd 91 91 9f bb 31 9a 6e be
       0.15813641 -0.09913896 -0.004869648 -0.23301007
000310 29 e5 e2 3d 08 ea e7 3d 3d 10 c6 3c 5c 93 77 be
       0.11078865 0.11323935 0.024177665 -0.24177307
000320 ff 72 13 3e 01 8d 14 be 95 4d 13 bc 8c 1c 1a be
       0.14399336 -0.14506914 -0.008990665 -0.15049952
000330 53 e1 83 3c 20 a7 fd 3d 2b e2 16 3c f2 d7 26 be
       0.016098654 0.12385392 0.009209196 -0.16293314
000340 27 1a f0 3d 10 5e 36 be 88 ee 2e 3d 51 a1 36 be
       0.11723738 -0.1780932 0.04270795 -0.17834975
000350 6d 30 c7 bd 25 d5 be 3d 9b ed e7 bc bb c5 43 be
       -0.09726033 0.09317998 -0.028311541 -0.19118397
000360 31 80 88 3d 4c e8 3e 3d f4 80 d3 3c bb f4 4f 3d
       0.066650756 0.046608254 0.025818326 0.050770503
000370 d8 69 aa be 43 9a d1 bd 59 07 0d 3d ed b7 2b 3d
       -0.33283877 -0.10234501 0.034430835 0.041923452
000380 0e eb b9 3d b9 90 79 3d 44 a0 a3 3b 22 96 5e 3d
       0.09078036 0.060929034 0.0049934704 0.054342397
000390 3c 3d 26 be 6e 3b ad 3d 37 4a 95 3c 27 e1 47 3d
       -0.16234297 0.08458601 0.018223865 0.048798706
0003a0 29 6c 2e 3e c4 b7 e1 3c 54 59 40 bd cb 32 7c bd
       0.17033447 0.027553447 -0.04696019 -0.061571877
0003b0 f6 84 ad 3d 92 b2 dd 3e 64 ea ac 3b 64 6d 61 bd
       0.08472626 0.433003 0.005276965 -0.055035964
0003c0 36 e9 91 bd 77 35 85 be ad c3 0a bd 73 21 01 3b
       -0.071245596 -0.26017353 -0.033878017 0.0019703775
0003d0 9b 53 49 3d 80 7c 23 3f ab c0 1e bb b0 1b 15 3c
       0.049151998 0.63861847 -0.0024223726 0.0091008395
0003e0 57 ac 7f bd 51 ad 80 be 4d b1 0b 3d 47 32 c9 3c
       -0.062420215 -0.2513223 0.034104634 0.024560107
0003f0 c4 e2 e6 bc 09 98 ab bc 2b 5b 85 bc a1 7e 66 3c
       -0.028184302 -0.02094652 -0.016278824 0.014068277

fc1.bias f4 [128]
000000 ba 2b 73 3d e5 c7 ce bc ca bc 19 bd 98 cf 13 bc
       0.059367873 -0.025241802 -0.03753356 -0.009021662
000010 61 3e 67 bd bd 1b d0 bc a5 45 11 bd ff ae 48 bc
       -0.056455974 -0.025403852 -0.03546681 -0.012248754
000020 84 97 4a 3c 07 78 66 bd 8d 9c aa 3d c2 a0 e1 bd
       0.012365226 -0.05626681 0.08330641 -0.1101699
000030 91 c3 47 3d f1 d6 ce bd 73 b3 1e bd 15 cd 9a ba
       0.04877049 -0.100995906 -0.038745355 -0.0011810387
000040 d0 2d 1f 3c 97 04 34 bc aa 78 a7 3c 7e a1 11 3d
       0.009715512 -0.010987422 0.02044328 0.0355544
000050 ac 68 8f bc 25 38 70 bc ce 54 49 bd 9e d9 55 bd
       -0.017505966 -0.014661823 -0.04915314 -0.05220949
000060 77 52 1e bc ff 03 7e bd a4 79 0f bd ca 96 b0 bd
       -0.009663216 -0.06201553 -0.035028115 -0.08622511
000070 79 6b 73 bd fe 07 2c bd 90 00 fa 3c f7 fc a9 3d
       -0.059428666 -0.04199981 0.030517846 0.08300202
000080 72 f8 e0 bc 8d 5a f2 3c 01 3f 13 bd 2b 5f 16 bb
       -0.027462218 0.029584194 -0.035948757 -0.0022944908
000090 52 cc 17 be b1 2e 0c 3d ad ce c7 bc eb 9f 1f bd
       -0.14824036 0.034224216 -0.024390543 -0.03897087
0000a0 c7 a8 e5 3c b2 9f 37 3c 7e 7e 7d 3d 09 f3 69 bc
       0.02803458 0.011207508 0.06188821 -0.0142791355
0000b0 49 d9 0f 3c fd 36 49 bc 0f 51 e3 bb 0d 69 7e 3d
       0.008779832 -0.012281177 -0.006937153 0.062111903
0000c0 0e bc dd 3c d9 40 aa bb 01 bb 75 bd 06 3b a8 3c
       0.02706721 -0.0051957187 -0.059992794 0.020535957
0000d0 6f 15 08 3d 13 df fb bc 01 6e 9c 3d a4 ce 5e 3c
       0.033223566 -0.030746019 0.07638169 0.013599072
0000e0 56 f1 d3 bb 96 59 33 bc 6e fb 04 be 15 c8 ba bd
       -0.0064679785 -0.010946652 -0.12986538 -0.09120194
0000f0 83 3f 92 bd f0 9e 12 3e 01 74 69 bc 52 60 6d 3d
       -0.0714102 0.14318442 -0.014248849 0.057953186
000100 f5 68 fc bb 76 6a 4e 3c 85 e2 b9 3d 29 fa 8c bc
       -0.0077029415 0.012598624 0.09076408 -0.01720913
000110 02 10 6c bc fb a0 21 be 4b d4 19 3c 1f c3 03 3d
       -0.014408113 -0.15784065 0.0093889935 0.032168504
000120 08 71 4c 3d c2 b8 28 be a6 42 8f bd b8 2b 8b 3d
       0.049912483 -0.1647673 -0.06995134 0.06795448
000130 f6 2b 08 bd 6d fa 67 3d b4 44 e0 bd 4a e6 b7 bd
       -0.03324505 0.05663531 -0.10950604 -0.08979471
000140 1b 1b e0 bc ac 24 58 bb c2 43 59 3d c8 7d 34 bc
       -0.027356675 -0.0032980843 0.053043135 -0.011016317
000150 b2 66 71 3a be 17 54 bd 41 6b 8f bd 0d e4 da 3b
       0.0009208723 -0.051780455 -0.07002879 0.006680018
000160 a2 a7 cb bc eb 29 73 bc dc e9 98 bc 8c 2f 74 bd
       -0.024860207 -0.014841537 -0.0186662 -0.059615657
000170 69 c9 15 3e 93 21 95 3d 51 b3 dd bb 75 9a 89 bc
       0.14627613 0.072817944 -0.006765761 -0.016797284
000180 c8 36 83 bc c2 6a 6a bc b6 5f 1b be 95 5b 0f bd
       -0.016017333 -0.01430768 -0.1517323 -0.03499945
000190 59 42 42 bd f6 46 1d bd 86 0b 09 bb 6f 64 c9 3b
       -0.047426555 -0.03839775 -0.002091141 0.006146006
0001a0 da 1a 08 be 87 f6 66 3d 2b 68 09 bc 47 33 d4 3d
       -0.13291493 0.05638745 -0.008386652 0.10361343
0001b0 5b 86 f9 3b 81 98 23 3d fe 18 ab 3c 9b ca 0e bb
       0.0076148934 0.03994036 0.02088594 -0.0021788243
0001c0 6c b9 fb bc c1 26 a1 bd f2 85 94 bc bb e6 8a 3e
       -0.030728064 -0.0786872 -0.018130276 0.27129158
0001d0 bd bd 02 bd 86 5b a7 bd 5b 24 ee 3d 61 f9 ee bb
       -0.03191923 -0.081717536 0.11628028 -0.007292912
0001e0 cf 12 c7 bc 1b 88 dd bc 20 79 28 bc 62 e9 93 bd
       -0.02430096 -0.02704244 -0.010282785 -0.072222486
0001f0 08 aa f6 bc 12 2a 55 bd a4 33 d0 bc 6e f5 71 3d
       -0.030110374 -0.052042075 -0.02541525 0.05907195

fc2.weight f4 [64, 128]
000000 d8 3c 0a be 4a 67 be 3b 70 99 65 3d 3d d9 1a bd
       -0.13499773 0.005810653 0.056054533 -0.03780483
000010 53 56 40 be 62 60 a8 bd e7 41 e6 3c 19 96 6f 3d
       -0.1878293 -0.082215086 0.028107597 0.058492754
000020 c5 2b 61 bd a7 ab 0a bd 70 cc 71 3d 27 92 99 3d
       -0.054973383 -0.033855107 0.059032857 0.074985795
000030 26 9c b8 3d 4f 51 ca 3a 65 24 7b bd e7 5d cc 39
       0.09014158 0.0015435609 -0.061314005 0.00038979875
000040 4f 63 74 3d 40 27 08 3d d5 90 78 3d a6 69 88 3d
       0.05966502 0.033240557 0.060684998 0.06660776
000050 40 9f 2c be 11 d4 1b 3c 44 25 d1 bd fb 40 a6 3d
       -0.16857624 0.00951101 -0.10212186 0.08117863
000060 ac 66 c9 bc bf fd 26 bd 8d 0b d5 bc 81 50 38 3d
       -0.02458509 -0.040769335 -0.026006484 0.04499865
000070 d6 b5 70 be 00 ba b2 bd 0d 4a 7e bc 96 ab 99 3d
       -0.23506865 -0.08726883 -0.015520585 0.075034305
000080 f1 5c c9 bc 6a ca 6a bc d6 f2 58 be 12 f1 ab 3c
       -0.02458045 -0.014330486 -0.21186385 0.020988975
000090 32 4f 0d 3d 94 9c b7 3d 7b f3 9c bd cf 37 bb bd
       0.034499355 0.08965412 -0.07663628 -0.09141504
0000a0 73 75 0b be c8 ef 40 be 6b cd ad 3d 2e 3d c5 bd
       -0.13619022 -0.1884147 0.08486446 -0.0963081
0000b0 5b a3 19 be e2 77 82 bc d7 58 41 bd 94 92 17 3d
       -0.15003721 -0.015926305 -0.047203865 0.037005022
0000c0 cb de 22 bd 40 28 7a 3d 2a 2c f8 3d 0f 51 bb 3d
       -0.039763253 0.06107354 0.121177986 0.0914632
0000d0 fa 51 2e bd 66 db 85 3d ca f7 0a 3e 1a 0a e2 3d
       -0.042558648 0.065359876 0.13571087 0.11037083
0000e0 b8 8e 32 be 6d 1f 79 bd 03 9f 8a 3d d1 c5 af bd
       -0.17437255 -0.060820986 0.0676861 -0.08582652
0000f0 f8 b9 9f 3d 77 e2 e7 3d e0 7a 2c bc 6d d5 a6 3d
       0.077991426 0.113224916 -0.010527343 0.081461765
000100 fa b2 42 bd 80 b3 1b 3d aa 0f b2 3d 49 d2 3e 3b
       -0.047533967 0.03801298 0.08694394 0.002911704
000110 aa 34 4c bd 6f b8 1c 3d 27 09 81 3d 7e 97 36 be
       -0.049854912 0.038261827 0.06300574 -0.17831227
000120 c6 4b 9e 3d 0a f6 bb bc 52 b3 d1 3d 75 cc 51 3c
       0.077292964 -0.022944469 0.10239281 0.012805094
000130 f0 4f ac 3d b7 84 75 3d ff 5a ac bd 96 38 2b bd
       0.08413684 0.05994102 -0.08415794 -0.04180201
000140 0c 11 bc bd 27 ca 00 be 3c 5f e7 bd 27 44 a1 bd
       -0.09182939 -0.12577115 -0.112974614 -0.07874327
000150 b8 14 ac bd d7 34 9a 3d eb 84 ed bd da a4 84 3d
       -0.08402389 0.0752961 -0.11597618 0.064767554
000160 98 55 26 be a4 c1 7c bd 1d 41 2a 3b ec d1 7b 3d
       -0.16243589 -0.061708108 0.0025978752 0.061479494
000170 7d 98 8f 3d d5 f3 a0 3d 84 a3 74 3d c7 68 f8 3c
       0.07011507 0.07859007 0.059726253 0.0303234
000180 e0 fa 08 3c cd d3 35 bc 70 5e 26 bd 61 59 d5 3d
       0.0083605945 -0.0110978605 -0.040617406 0.10417438
000190 2a f0 b6 3d 0d fe ce 3d 55 50 a4 bd 37 43 99 3d
       0.089325264 0.1010705 -0.080231346 0.07483523
0001a0 55 34 16 bd bb 50 3c 3e 0e f2 07 3d 53 26 91 3d
       -0.036671 0.18390171 0.033189826 0.07087388
0001b0 54 b8 05 3e 9b d3 93 bc 13 f9 96 bd 35 9a 1f 3e
       0.13058597 -0.018045237 -0.07371726 0.15586169
0001c0 79 7d 0d be 17 ef ed 3d 66 aa 64 3d 82 04 1c 3d
       -0.13817395 0.116178684 0.055826567 0.038090236
0001d0 65 00 bd bc b9 e5 1f 3d 21 cc 10 3e c6 ab f2 bd
       -0.023071477 0.03903744 0.14140369 -0.118491694
0001e0 a2 fe b2 3d 6b e0 c2 bd df 29 85 bc 0b 58 ff bd
       0.087399736 -0.095154606 -0.016255317 -0.12467965
0001f0 75 06 52 bd 78 a5 08 be ed 58 85 bd fc 3e 6e 3d
       -0.05127569 -0.13344371 -0.06511102 0.058165535
000200 19 a7 30 bd 7b ec b4 bc c7 9a 01 3c 91 67 59 3d
       -0.043128107 -0.022085419 0.007910437 0.053077284
000210 60 b1 05 bd 4c a9 2a bd 78 0b 71 bc f5 ed fd 3b
       -0.03263986 -0.04166536 -0.014712207 0.007749314
000220 8e 54 42 bb 63 fd 72 b9 53 fe 73 bd ba 3c fd 3c
       -0.002965245 -0.00023173312 -0.059568714 0.030912746
000230 d1 41 88 bc 0f 6e 15 bc 9b 7d 3b 3c 64 86 64 3d
       -0.016632946 -0.009120478 0.011443521 0.055792227
000240 6e 2f 08 bc d6 9e a4 3c ba 68 09 3d 38 46 f0 3c
       -0.008312089 0.02009527 0.03354714 0.029330358
000250 fb b5 35 39 1a e0 15 bc c2 a6 1b 3d f8 4f 01 bd
       0.00017329298 -0.009147668 0.03800083 -0.031570405
000260 c2 b1 33 3c dc 5c 86 bc 91 c3 01 3d 0a a9 8d 3c
       0.010967674 -0.0164017 0.031680647 0.017292518
000270 98 8b 20 bd c6 ff 42 bd ac 88 70 3d c0 20 99 bc
       -0.039195627 -0.047607206 0.05872409 -0.018692374
000280 4b 5d 84 bc 50 33 39 3c 0f 83 32 bc 6f b9 54 3d
       -0.016157767 0.011303738 -0.010895505 0.051934656
000290 62 98 69 bc 01 2c 00 bd bc 72 7b bd 54 4a 43 3b
       -0.014257522 -0.031291965 -0.061388716 0.0029798942
0002a0 18 1f 22 3d 38 1e 37 bd c3 26 2a bc e1 82 ab 3b
       0.039580435 -0.044706553 -0.010385218 0.005234108
0002b0 cb d1 d3 3c 7a dd 26 bc 63 d7 0d 3c 4d 65 a3 bc
       0.025856873 -0.01018464 0.008657309 -0.019945765
0002c0 df c3 c4 b9 bc 32 17 bd 14 08 ac 3c 83 19 66 bc
       -0.00037529969 -0.03691362 0.020999946 -0.014044168
0002d0 22 f8 11 3d 7f 01 3e 3d 90 5f e3 3a b8 1a 98 3a
       0.03563703 0.046388146 0.0017347205 0.0011604642
0002e0 1a 27 25 bc dc bc 41 3d ea 91 a9 3c c8 54 83 bd
       -0.010080123 0.04729925 0.02069946 -0.06412655
0002f0 49 91 a1 bc fc a8 38 bd 14 fa 58 3c e3 cb e5 bb
       -0.019722598 -0.04508303 0.013243217 -0.0070128306
000300 c5 58 1c 3d 27 9d 02 bc ba 2f 89 ba be fb da bc
       0.038170595 -0.007972038 -0.0010466494 -0.026731368
000310 6f 22 3b 3d 96 7e 8a bb ea a0 f7 bb 3e 1f 60 bc
       0.045687135 -0.004226516 -0.0075570242 -0.013679324
000320 1b 07 80 bc 63 2c b4 bd 44 57 4d bd cb 01 5d 3b
       -0.015628388 -0.087975286 -0.05013205 0.0033722993
000330 3b c7 f3 bb d9 8f b0 ba 85 7b bc bc 9d 84 1b 3d
       -0.0074395216 -0.0013470604 -0.023008117 0.037968267
000340 1a b0 a0 3c 69 57 0e bc 39 93 69 bd 01 87 9d bc
       0.019615222 -0.008687832 -0.057025168 -0.019229414
000350 33 4a 83 bc dd 7b 01 bd 78 b0 bd 3b 43 f6 de 3c
       -0.016026592 -0.031612266 0.005788859 0.027217036
000360 ea e2 28 bd ae 6c 70 bb b2 a1 51 bc 21 6a 9e 3c
       -0.041232027 -0.0036685872 -0.012794899 0.019337716
000370 55 31 8e 3c 59 3e fb bc 29 ff 1f 3c 84 10 af 3c
       0.017357508 -0.030669378 0.009765425 0.02137018
000380 f4 23 b5 bb dd 97 38 bc 91 77 4a bd 72 5d 9c bb
       -0.0055279676 -0.011266676 -0.049430434 -0.0047718817
000390 5f e2 b1 3c c0 0e 4d 3d 27 a2 a2 bb 98 21 3f bd
       0.021714387 0.050062895 -0.0049631777 -0.046662897
0003a0 4b 47 1d 3c 68 88 a2 3c 88 25 95 bb 06 db 2c bd
       0.009599517 0.019840434 -0.004551593 -0.042201065
0003b0 8d 25 4a bc 4f 30 b2 3c e4 61 f8 3b 4b a7 c4 3c
       -0.012338054 0.021751551 0.007580029 0.024005553
0003c0 ec 1a 4c 3d b3 12 35 bd 94 90 c0 bc c5 df 44 bd
       0.049830362 -0.044207286 -0.02350644 -0.048064966
0003d0 f2 f2 5f bc f9 56 05 3c 69 a8 03 bd 4b 03 53 bd
       -0.0136687625 0.008138412 -0.03214303 -0.051516812
0003e0 98 c8 96 bc 8a 47 7a bd a6 e3 84 bc 38 37 3f bd
       -0.018406197 -0.06110338 -0.016221832 -0.04668352
0003f0 4d ec 2a 3d 04 7d 08 bb df 4a 84 bc 1e 6d 54 3c
       0.04172926 -0.0020826468 -0.016148983 0.012965469

fc2.bias f4 [64]
000000 e5 44 11 bc d9 00 ac bc ae ad 93 3c 70 44 b7 8e
       -0.008866523 -0.020996498 0.018027153 -4.5178886e-30
000010 28 f5 d4 bd e0 0d 68 80 28 2f 83 bc c2 7f 07 bd
       -0.10398322 -9.555869e-39 -0.016013697 -0.033080824
000020 6a 37 8d 3c ee e4 aa bd 1c a2 ed 3d 00 24 cd bd
       0.017238338 -0.08344446 0.116031855 -0.10016632
000030 93 ac 4c bd 5b b5 ba 3d 7f c4 49 3d 7c 5f 41 bd
       -0.049969267 0.09116622 0.04925966 -0.0472102
000040 14 06 dc bc fe d0 57 bc 3d eb 3e bd b5 6e e8 3d
       -0.026858367 -0.013172386 -0.04661106 0.11349241
000050 4a 69 22 be 84 64 28 39 b1 6a d8 3c af 0d 58 be
       -0.15860477 0.00016059174 0.026418062 -0.2109897
000060 ca e3 ea 3d 9a d8 d1 3d 19 4f e0 3c 8d c8 4c be
       0.114692286 0.102463916 0.027381467 -0.19998379
000070 90 38 21 bc f2 c7 0c be 98 bb bf bc 36 0f 92 3d
       -0.009840146 -0.13748148 -0.023404881 0.071318075
000080 d6 62 fa ba 6f 1a 20 3d 57 5b 26 bd 56 1c 0b bd
       -0.0019102942 0.03908771 -0.040614452 -0.03396257
000090 71 90 56 a5 f5 90 0c 3d 8a 04 5a bd b5 03 94 bd
       -1.861048e-16 0.03431793 -0.053226985 -0.072272696
0000a0 12 54 cc 3c 73 77 a9 b9 c6 8f ff 39 c5 fa b7 3c
       0.024942432 -0.00032323188 0.0004874451 0.022458443
0000b0 78 2d 18 3e a8 98 5c 3c e4 26 94 bd 98 8b 13 bd
       0.14861095 0.01346413 -0.0723398 -0.0360218
0000c0 73 89 25 3d a6 e9 41 3d 09 80 17 bd 0c fa d0 3c
       0.040414285 0.047341965 -0.03698734 0.025509857
0000d0 37 1d 6f 3d 90 2c d5 bc d2 0b 97 bd de 05 ee bc
       0.05837747 -0.026022226 -0.073753014 -0.029055532
0000e0 62 ee 87 3c c4 56 0b bb 21 2b 94 bd 98 14 e3 3c
       0.016593162 -0.0021261433 -0.07234789 0.02771978
0000f0 79 49 84 bd 2b e5 5e be 4a 81 75 bd 86 28 fa 3c
       -0.06459326 -0.21767108 -0.059937753 0.030536901

fc3.weight f4 [32, 64]
000000 0a 6a 0a be 5a 21 cf 3d b2 b6 cb bd 62 ae 13 0e
       -0.13517013 0.10113783 -0.09946956 1.8203111e-30
000010 ea 1e ce 3d c0 54 2d 01 c8 0e 72 be 0b d0 48 be
       0.1006449 3.1835887e-38 -0.23638451 -0.19610612
000020 40 34 0f 3e 54 07 c5 bd 56 52 41 3d 1d 0a e4 3d
       0.13984776 -0.09620538 0.047197662 0.111347415
000030 36 58 34 3c c4 de e9 bc b8 70 22 3e 6a df 8b be
       0.011007359 -0.028548606 0.15863311 -0.2731889
000040 09 0f ac be dc 67 e0 3d ee 2d 04 3e 36 e1 2a be
       -0.3360522 0.109573096 0.12908146 -0.16687474
000050 db e4 90 be 57 af 65 bd 67 fc 81 be 21 11 6c bd
       -0.28299603 -0.05607542 -0.2538788 -0.057633523
000060 34 c1 24 3e 7c 19 6b be 9a 36 e5 bd dd f6 45 3e
       0.16089326 -0.2295894 -0.11192055 0.19332452
000070 6f c7 35 3e 8a 4d 0e 3e ba 74 65 be 75 40 02 3e
       0.17751859 0.13896766 -0.22407809 0.12719901
000080 5d 3e 7f be a9 30 0d be 10 94 f6 bb 5c c9 1c bd
       -0.24926133 -0.13788094 -0.0075249746 -0.03827797
000090 1f a1 a7 34 1b c3 e3 bd 78 ea 2d 3d e7 a4 90 3d
       3.1223405e-07 -0.11121198 0.042459935 0.070627026
0000a0 46 ea 02 be fa 4c a9 bd d2 c0 82 3e 5f 3d 70 3c
       -0.1278468 -0.08266635 0.25537735 0.0146630695
0000b0 51 27 8b be 85 9d 8d be 66 c8 4a be 9a 77 f2 3c
       -0.27178434 -0.2765924 -0.19803008 0.029598046
0000c0 0b 3a 09 3e 39 9b 8a 3d ea e3 fc 3c 82 35 01 bc
       0.13401048 0.067678876 0.030870397 -0.007886292
0000d0 19 90 42 3e 7b 0c d1 3e 0e 5c 54 be 9e 66 07 bd
       0.19000281 0.40829834 -0.20738241 -0.033056848
0000e0 be 61 25 3e 96 85 ed bd 4f d6 05 3e f7 37 ce 3d
       0.16150567 -0.11597745 0.13070033 0.10069268
0000f0 e8 ba c1 bd b4 2d d9 bd 89 fe 26 3d 60 62 2b be
       -0.09459478 -0.1060442 0.040770087 -0.16736746
000100 ec b9 af 3d 17 d0 c3 3c 87 05 ef 3c f1 ed 2f 0d
       0.08580384 0.023902936 0.02917744 5.421245e-31
000110 ea e3 d4 3d e0 9d 74 00 09 26 82 bc 00 70 d1 bd
       0.10395034 1.0709552e-38 -0.015887277 -0.102264404
000120 65 d8 ea bd e4 8e 5e 3e 9e 23 94 39 ae 9d 6c 3e
       -0.11467055 0.21734196 0.00028255297 0.23107025
000130 8e 4a e4 3c 55 06 35 be 41 34 96 3d 5e d8 bf bd
       0.027867582 -0.17678197 0.073341854 -0.09367441
000140 be 99 1c bc 2c f2 8b bb ea eb 16 bd da 66 83 bd
       -0.009558139 -0.0042708125 -0.03684608 -0.06416102
000150 29 d2 8d bd cc da 96 bd 3b 58 ec bd 22 b0 66 3e
       -0.069248505 -0.07365951 -0.11540266 0.22528127
000160 65 b7 8e be 86 f4 30 be b9 d7 2b 3d 89 da 94 bc
       -0.27874294 -0.17280778 0.041953776 -0.018170612
000170 a9 6e 5b 3e 9e a6 1a 3c 92 45 07 3e 42 89 9c 3c
       0.21428932 0.009439139 0.13210133 0.019108418
000180 9b 67 9b 3d 0e d8 70 be 81 db 57 bc 82 03 84 be
       0.075881205 -0.23519918 -0.013174892 -0.25783926
000190 ee 85 30 a8 e3 af 20 be 1b 83 5c 3d d4 0a 7d 3d
       -9.799004e-15 -0.15692095 0.05383597 0.061777905
0001a0 81 3a d6 3c cc 1b 2c be e9 4e 52 3e 18 29 a5 3d
       0.026150944 -0.16807479 0.20537914 0.08064479
0001b0 e2 a7 48 be 6c 7c 3e be eb 51 33 be 80 bd 2a 3e
       -0.19595292 -0.1860215 -0.17511718 0.16673851
0001c0 d9 4c 40 be f6 7c 01 be d6 a4 15 3e 80 22 ea bd
       -0.18779315 -0.12645325 0.14613661 -0.114323616
0001d0 fe 03 90 3e e7 25 fb 3d 19 94 22 3d d7 2c 31 be
       0.28128046 0.12263089 0.03969202 -0.17302261
0001e0 12 97 57 3d 22 01 00 3c 4a 5b 15 be 1d 92 2e 3c
       0.052634306 0.00781277 -0.14585605 0.010654953
0001f0 ff 72 20 bd 20 e0 90 3e b9 c4 d0 3d 86 23 a0 3d
       -0.03917217 0.28295994 0.10193772 0.078192756
000200 0d 32 92 95 99 25 19 13 ae 4d cc 97 00 58 24 80
       -5.9047897e-26 1.9329852e-27 -1.32028e-24 -3.337646e-39
000210 ae 1f d2 17 40 82 31 80 4f ef bb 95 43 cc a1 97
       1.3578929e-24 -4.546664e-39 -7.590626e-26 -1.0455944e-24
000220 69 ea ef 97 cd 84 ab 97 6a f3 92 97 a5 50 c9 97
       -1.5504186e-24 -1.108414e-24 -9.496475e-25 -1.3009678e-24
000230 75 bc a3 14 79 2e 32 98 37 7a fe 14 67 c3 c9 97
       1.6533127e-26 -2.3029423e-24 2.5695651e-26 -1.3038647e-24
000240 2b a9 bd 97 01 f3 12 97 16 92 40 98 cd 3d 8c 97
       -1.2256543e-24 -4.748186e-25 -2.4889173e-24 -9.062889e-25
000250 09 38 9e 98 00 a4 1a 98 63 ad 5b 96 27 b2 61 96
       -4.0898624e-24 -1.9986832e-24 -1.774539e-25 -1.823157e-25
000260 8f bb 98 17 6f a6 01 96 0c ff 58 98 ae fc 72 15
       9.870116e-25 -1.0473054e-25 -2.8046111e-24 4.907084e-26
000270 de ce 32 98 1a 79 8d 97 df bc 1f 98 a1 10 c9 98
       -2.3110402e-24 -9.142482e-25 -2.0645624e-24 -5.1974073e-24
000280 8f 11 c6 97 92 77 84 95 a2 69 0b 15 7b 73 26 95
       -1.2799883e-24 -5.3503024e-26 2.8154156e-26 -3.361453e-26
000290 e0 63 36 00 f6 17 af 97 c7 74 09 95 fc 3f 6d 95
       4.994945e-39 -1.1315159e-24 -2.775905e-26 -4.7912244e-26
0002a0 69 c6 a0 96 be 1f 69 98 ec 94 be 14 89 c5 33 97
       -2.5974609e-25 -3.013057e-24 1.9243837e-26 -5.8087344e-25
0002b0 27 c3 81 96 0d 6f 2c 96 76 5d 30 97 c7 87 8c 98
       -2.0964232e-25 -1.3929091e-25 -5.698663e-25 -3.632625e-24
0002c0 cd fb 16 17 14 7b 1a 98 e3 94 b6 16 e7 c6 06 97
       4.878543e-25 -1.9966172e-24 2.9497647e-25 -4.3548785e-25
0002d0 fa 97 db 97 d8 04 01 93 a5 20 15 96 60 3f ae 14
       -1.4190908e-24 -1.6284477e-27 -1.2046425e-25 1.7594507e-26
0002e0 06 b3 a6 97 c7 ab 88 96 08 07 2a 97 ea 1e 02 96
       -1.077269e-24 -2.2080392e-25 -5.4938837e-25 -1.0511071e-25
0002f0 c6 31 27 96 bc 94 a6 17 3e a6 72 96 3d 8a ab 96
       -1.3505858e-25 1.0765044e-24 -1.9601061e-25 -2.771378e-25
000300 43 f4 c7 3d f4 89 85 bc ae 6c 20 3c 54 87 31 8e
       0.09763386 -0.016301133 0.009791536 -2.1882093e-30
000310 90 b3 dd 3d 80 2b 19 00 59 5d aa bd a5 4b b0 bd
       0.108252645 2.311492e-39 -0.08318586 -0.08608178
000320 a8 d8 82 be a1 f5 1a 3e 20 00 80 3c df b2 72 3e
       -0.2555592 0.15132762 0.01562506 0.23701046
000330 47 18 ea 3c 0b 45 7b be 80 a3 53 bc 74 df 47 3d
       0.02857603 -0.24538057 -0.012917399 0.048797086
000340 71 4b b1 3d f5 ca 54 bd 1a 35 13 be 91 20 7c bd
       0.086569674 -0.051951367 -0.14375725 -0.061554495
000350 af a4 04 be b5 1f da bb 9a 0d 0d be 32 a8 1a 3e
       -0.12953447 -0.006656612 -0.1377472 0.15103224
000360 3d ff 84 be ad 28 b9 be 4d 67 28 3e 22 0c 4b bb
       -0.2597598 -0.36163846 0.16445656 -0.0030982574
000370 8f 7b 44 3e ce ea 8a bc 37 15 03 3d 63 01 aa bd
       0.19187759 -0.016957667 0.032002654 -0.08301046
000380 b3 34 eb 3d 5e 66 78 be 14 73 6e 3b a5 62 a0 be
       0.11484661 -0.242578 0.003638451 -0.3132526
000390 aa 63 11 a8 54 5b 0b be 0a 0d c6 3d 4f 08 23 3e
       -8.070728e-15 -0.13609058 0.09670456 0.15921138
0003a0 25 92 22 3e 7b ba df bd 6a 0b 85 3e bb 1e ca 3d
       0.15876062 -0.1092424 0.2598527 0.098691426
0003b0 b7 94 93 be 05 16 06 be f4 4f a5 bd 38 ac 07 3e
       -0.28824398 -0.13094337 -0.080718905 0.1324929
0003c0 7d 14 3c be 8c e2 00 be a4 1b c4 3c fb 73 97 bd
       -0.1836719 -0.12586421 0.023938961 -0.073951684
0003d0 08 da b0 3e a3 32 02 3e b0 70 9e 3d a8 0a a2 be
       0.34541345 0.12714629 0.07736337 -0.31648755
0003e0 e7 71 a9 3d 3a ac 02 be 32 a0 fd bc 67 a6 ac bb
       0.08273678 -0.12761012 -0.030960176 -0.00526886
0003f0 72 33 89 3d 58 bf af 3e 3a 9c 9c 3c 9d b3 d8 3d
       0.066992655 0.3432567 0.019117463 0.105811335

fc3.bias f4 [32]
000000 17 97 75 bd 9a 28 02 bc 78 e6 2b 98 99 18 36 be
       -0.059958544 -0.0079442505 -2.2217589e-24 -0.17782821
000010 69 d6 d1 bc fe 7e 89 3c 8e 2f 86 3c 4d 4a 0e 3e
       -0.025614934 0.016784187 0.016380098 0.13895531
000020 22 5f a4 bd de c3 ed 3d 45 ed 52 3d 43 25 12 3d
       -0.08025958 0.11609624 0.05149581 0.035680067
000030 ad de 22 bd 1a 87 9b bd bf 26 29 be 15 13 95 3d
       -0.03976314 -0.07594128 -0.16518687 0.0727903
000040 99 8b df 3d 13 b6 e3 bc 2b de 94 3e 3f 11 92 3e
       0.10915298 -0.02779678 0.2907575 0.28528783
000050 ea dc 1b 3d f0 4d 1c bd 2f 93 a3 b9 c8 48 0d bd
       0.038052477 -0.038160264 -0.00031199443 -0.034493238
000060 19 05 b8 94 99 d7 0e bd 05 17 b0 3e 92 7d 46 3d
       -1.8581263e-26 -0.03487358 0.34392563 0.048459597
000070 2b 9c 26 3d 4b 88 fe 3d 78 e6 56 3d 0d 29 3a be
       0.040676277 0.124283396 0.052465886 -0.18179722

fc4.weight f4 [2, 32]
000000 21 62 92 bf 75 de c5 bd 87 8e 33 18 cc 95 f8 3d
       -1.1436197 -0.09661571 2.3207166e-24 0.121379465
000010 1f 61 c8 3e 4a 82 4e bf e7 cf 20 bf df 59 4d bf
       0.39136598 -0.80667555 -0.62817234 -0.8021526
000020 fe 00 e1 be d3 f7 17 bf 46 eb c7 bf bf 7c 0c bf
       -0.4394607 -0.59362525 -1.5618675 -0.5487785
000030 2f 3b 56 be af e0 06 bf 3c db 2b 3e 10 e7 db bd
       -0.20921014 -0.5268659 0.1678285 -0.10737431
000040 60 92 43 3f de a1 f8 3e 13 ed 23 3d a0 aa 1b bd
       0.76395226 0.48560995 0.040021013 -0.038004518
000050 67 17 d4 bd 5d 8c 8e bd 41 3e d9 be 43 74 78 3f
       -0.10356026 -0.06960366 -0.42430308 0.970524
000060 03 18 5c 94 ac e9 91 3e e8 15 92 be 68 84 4d bf
       -1.1111897e-26 0.2849859 -0.28532338 -0.8028016
000070 21 77 c1 3d 77 9c 34 bf 04 23 d3 3d 4f 8c aa 3e
       0.0944655 -0.70551246 0.10309413 0.33310172
000080 07 3b 7f 3e d6 68 5b 3f c9 d0 ea 94 dd 9f 87 3f
       0.24924861 0.8570684 -2.3710313e-26 1.0595661
000090 8f b6 48 be 28 9b e8 bc c6 fd 16 be 22 7c 02 be
       -0.1960089 -0.028394297 -0.14745244 -0.12742665
0000a0 28 62 38 3d 5c 8f b2 3b 19 04 e1 be 14 a2 61 ba
       0.045015484 0.0054492187 -0.4394844 -0.00086072204
0000b0 3a 74 bd be 02 52 dd ba f8 62 69 3f 7c 02 12 bf
       -0.37002736 -0.0016885402 0.9116664 -0.5703504
0000c0 e9 59 9a bc 0a 42 a9 be ac b0 99 bf 2a 80 8b bf
       -0.0188417 -0.33058196 -1.2007041 -1.0898488
0000d0 15 57 51 3f 18 1b 59 3f c7 3c 9d be b0 5a 8a be
       0.817735 0.84806967 -0.30710432 -0.27022314
0000e0 78 b1 15 13 de 51 63 bc f2 ba bb 3d 3f f0 a4 bd
       1.8893943e-27 -0.013874499 0.09166516 -0.08053636
0000f0 80 07 a4 be 11 f4 fd 3d 78 38 be be a8 0b b8 be
       -0.32036972 0.124000676 -0.37152457 -0.35946393

fc4.bias f4 [2]
000000 e0 5e 71 bd 9c 87 ab be
       -0.05892837 -0.335019
